save/ppo/Ant-v2/actor_old_model.pkl (torch_old, 66555 bytes, 6 tensors)

fc1.weight f4 [128, 111]
00000000: 3bf3 a9bd 77ce 23bb ec2a 37ba 94a9 02bc
00000010: dd33 c93d 9e6b 22bd b0bb a83c 5bc1 be3a
00000020: c447 093e 6291 0f3d 2493 163d 6c50 4bbb
00000030: 8105 13be 50a1 783d f436 193d 6e34 34bd
00000040: 80ce bd3d 467e e83c af70 5f3d 3ef6 023c
00000050: 08d0 2f3d 2075 a33d c060 e53b 3db6 a2bd
00000060: 12d3 30bc 99f0 2b3d 6845 16bd 397c 993d
00000070: a335 a03d 8049 493a 00d4 b6ba 141c 87bd
00000080: b0cd d73c e1ea a13d 7977 b03d 8029 283c
00000090: 79ae 983d 51bf 883d 6365 933d 0054 7ebb
000000a0: c958 ba3d 60e7 353b 9690 583d 0cdf 06bd
000000b0: b3ff 80bd 582f 6fbd 5c7f 33bd d3ea aabd
000000c0: a0b3 8cbc 2864 29bd 1f87 943d 2cb1 c0bd
000000d0: 688b 27bc 8667 283d 927b b7bd 18c7 60bc
000000e0: 5372 823d 889a cbbc 3633 95bd 108e 80bb
000000f0: 12d7 3d3d 561d 6e3d 1f37 a4bd 7e68 7dbd
00000100: a353 bb3d 08d1 75bd 3ace a4bd ce87 2e3d
00000110: f700 853d 89f0 3fbd 009c a0ba ec24 9d3c
00000120: 22f3 583d be97 1c3d 00c0 fc39 a64c 613d
00000130: 50a8 bcbc 1664 a3bd 7622 4d3d bfd8 a6bd
00000140: a0fe 7bbc db21 8f3d 6a24 4e3d 0001 b2ba
00000150: 8091 adbb e86f a6bd f0ef 36bc c0eb 9d3a
00000160: dd71 813d b067 7fbd 5c74 48bd 505b c0bc
00000170: de94 97bd 90b7 fc3b 9530 b1bd d495 993c
00000180: 8e6f 263d 178c 873d 8b0d c1bd 473b 973d
00000190: 9608 94bd c4c0 12bd b794 72bd 488f 703c
000001a0: 6a8e 553d ccc4 be3c 0522 b43d 2c05 27bd
000001b0: 8cda 16bd 394d b73d 2b2f ba3d d663 ba3d
000001c0: 63b0 a2bd 8d4a c33b 3105 7c3d d208 bc3c
000001d0: c527 c33c 0a7c 4b3d 310b 873d 298e 04be
000001e0: c837 91bc 0276 083d 41de d73d e466 a83b
000001f0: fc5a b4bd b421 a6bc 73d4 133d d8e0 8dbc
00000200: adc7 ddbd 3ffc ba3d 34eb ba3c 8ed5 dfbc
00000210: 3212 abbd ec92 d03c e52f c3bd 0e2d 6abd
00000220: 9819 bdbd f062 863d 212f 9a3d ac3b c93c
00000230: df00 45bd 082a babd a2bb 38bd a009 83bb
00000240: 0c70 c8bc 0980 ae3d da50 b7bd 1f1b ba3d
00000250: 6a95 653d e686 5ebd 54aa 86bd 766d b7bd
00000260: 5e68 2fbd c543 a8bd 587d 85bd 104b 133c
00000270: 99fc 0abd bb75 a63d b6d7 02bd f245 313d
00000280: dbb8 9b3d 22cc 87bd d809 6b3c b04d fe3b
00000290: c725 58bd 6759 4dbd 58da 1f3c df77 a4bd
000002a0: c8bb 6dbc c322 803d 36f0 76bd 51e0 0abd
000002b0: f6b9 683d 3f07 c13d a659 50bd 0374 55bd
000002c0: 0071 cabb 4fbe 1bbd 2232 133d 0b2a a53d
000002d0: 1cbb f83c 9431 2abd e67d 103d 0ddb 853d
000002e0: a8a4 20bc 8fd7 bfbd 905d 6e3c 8119 9f3d
000002f0: 60a5 3dbc 0e23 0a3d ee4e 9ebd eea8 243d
00000300: 427c 55bd 456c a3bd 70ae 2e3c 2ef2 8ebd
00000310: ea8b 8ebd f280 6c3d 88f9 a8bd 808a 11bb
00000320: a909 a33d 0e76 8fbd 2065 64bc 6f84 983d
00000330: f45d f3bc 2973 3dbd 6261 453d 2611 253d
00000340: 7265 7e3d 2406 cfbc 2814 1abc efe2 b73d
00000350: 17c0 883d 2246 2d3d 7050 363c f379 8a3d
00000360: b625 603d b027 a1bd 06c6 0f3d 06cb 84bd
00000370: a2eb 3fbd 6893 f9bc 1b23 893d 0fd4 b93d
00000380: a3a7 bfbc 4e80 b33d ad8e acbd 2fa3 7c3d
00000390: 6e07 d0bc c241 98bb 294c dbbd 99a5 42bd
000003a0: ffd8 a9bc e66f 1f3d ff13 6a3d 35bd c63c
000003b0: 79ac 323c 6f06 aaba 1148 eebc b643 e4bd
000003c0: 7d4d 863d 6eb7 8fbd efb4 a23c 59a0 653d
000003d0: f3a5 d2bc d628 703d e811 92ba 0793 afbd
000003e0: 4649 a03d fc66 b63c c8cb d6bc 682b 59bc
000003f0: 4837 72bd dd5e 06bd e891 80bc 4a93 4dbd
-0.08298346 -0.0024994889 -0.0006987292 -0.007975001 0.09824345 -0.039653413 0.020597309 0.0014553474
0.13406283 0.035050757 0.036761418 -0.0031023277 -0.14357568 0.060700715 0.037405923 -0.043995313
0.092679024 0.028380524 0.054550823 0.007993279 0.042923003 0.07981324 0.007000059 -0.079449154
-0.010792511 0.0419775 -0.036687285 0.07494397 0.078227304 0.0007678494 -0.0013948679 -0.06597152
0.026343197 0.07906128 0.086165376 0.010263801 0.07455153 0.06677116 0.07197072 -0.0038807392
0.09098966 0.0027756318 0.052872263 -0.032927558 -0.06298771 -0.05839476 -0.04382263 -0.083455704
-0.017175496 -0.041355282 0.07252335 -0.09408793 -0.010226108 0.041114353 -0.08959116 -0.013719343
0.06369462 -0.02485396 -0.07285158 -0.003923185 0.046347685 0.058133446 -0.08018326 -0.06186723
0.09146812 -0.0600138 -0.08047147 0.042609982 0.06494325 -0.04686025 -0.0012253523 0.019182645
0.052966245 0.03823065 0.00048208237 0.05500474 -0.023029476 -0.07978074 0.050081693 -0.0814681
-0.015380532 0.06988879 0.050327696 -0.001358062 -0.005296886 -0.08126813 -0.011165604 0.0012048408
0.06320546 -0.062354743 -0.048939094 -0.023481041 -0.07401441 0.007712312 -0.086518444 0.018748201
0.04063373 0.06618517 -0.09426411 0.07384353 -0.072282 -0.035828367 -0.059223857 0.014682598
0.05213777 0.0232872 0.08795551 -0.040776417 -0.036829516 0.08950276 0.09091028 0.091010734
-0.07943799 0.005959815 0.06152839 0.022953425 0.023822675 0.04967884 0.065939315 -0.12944855
-0.017726794 0.033315666 0.105404384 0.0051392186 -0.088064164 -0.020279743 0.03609128 -0.017319128
-0.10829101 0.091301434 0.022817232 -0.02732351 -0.0835308 0.025460683 -0.095306195 -0.057171874
-0.09233397 0.065618396 0.075285204 0.024564587 -0.048096534 -0.09090048 -0.045100816 -0.00399895
-0.02446749 0.085205145 -0.08950968 0.09087204 0.056050695 -0.054327868 -0.06575456 -0.08956425
-0.04282414 -0.08216051 -0.06518048 0.008990064 -0.033932302 0.08127924 -0.031944 0.043279596
0.07603618 -0.06630732 0.014345609 0.007760726 -0.052770402 -0.05013409 0.009756647 -0.08030676
-0.014510103 0.0625663 -0.060287677 -0.03390533 0.05681797 0.0942521 -0.050866745 -0.05211259
-0.0061780214 -0.03802329 0.035936482 0.0806466 0.030362658 -0.041551188 0.035276316 0.06535921
-0.009804882 -0.093672864 0.014548674 0.07768536 -0.011575073 0.033724837 -0.077298984 0.040200166
-0.052120455 -0.07979635 0.010661706 -0.06979786 -0.0696028 0.05774016 -0.08250719 -0.0022207797
0.07960827 -0.07004939 -0.013940126 0.07447135 -0.029707886 -0.046252403 0.048188575 0.040299557
0.062108465 -0.025271483 -0.00940422 0.08978831 0.06677263 0.042303212 0.011127576 0.06761541
0.054723464 -0.07868898 0.03510096 -0.06484036 -0.046855576 -0.030465797 0.06696149 0.0907365
-0.023395365 0.087647066 -0.08425651 0.06167906 -0.025394168 -0.004646511 -0.10707886 -0.047521207
-0.020733355 0.038925074 0.057147976 0.024260143 0.0109053785 -0.0012971888 -0.029087098 -0.11145727
0.065577485 -0.07017408 0.019861666 0.056061123 -0.025713896 0.058632694 -0.0011144252 -0.08572965
0.07826476 0.022265904 -0.026220217 -0.013254978 -0.05913475 -0.032805312 -0.015694574 -0.050189294

fc1.bias f4 [128]
00000000: 3a9b 993b 68ad 8a3b 2125 133e 2552 863d
00000010: 4ccd f43b e0fd 2f3a f11c babd 4ef6 313d
00000020: 3ebc 5a3c a727 043d 59e1 b4bd f0e0 40bc
00000030: ec2c 0fbe d857 fd3d 6eb4 2a3d 96a3 79bd
00000040: e5fb 65bd ce8c 523d f4f2 aa3c 0ea6 a73d
00000050: 9329 983c ce9b bcbc 60e9 56bd 3dcb 32bd
00000060: 51aa bcbc 6295 fc3d 68c1 703c eb03 163e
00000070: 8491 9e3d d129 433d 437e 883d 438b 4dbc
00000080: ba48 80bc 76d2 0bbd 2465 9b3d 2d5f a33b
00000090: 1484 b83d ae76 a4bb 3cfc 2c3c edb2 a33c
000000a0: f98c d0bd ab67 913c 7e22 bebd ca16 8cbd
000000b0: 9050 003e 4696 afbc ac50 c33d 2393 a03d
000000c0: 9e34 0f3e c853 fe3d d162 96bc e659 3a3e
000000d0: d4ea bd3d 9ed3 663d 3de3 0dbd 9b05 d23d
000000e0: cadf 433d 580f 59bd 7b8e 3f3d aaf0 da3b
000000f0: 0b8c 84bc 438c 5fbd d115 84ba fcac e3bc
00000100: d24b 97bd 8107 113e ef43 913d 23bc d83d
00000110: 384f ccbb d484 5abd 4559 a4bd 1818 943c
00000120: 1301 033d 8a03 713c ef18 ca3d bce3 bd3d
00000130: e37d 323d 3967 233c ffdc d7bd 5ad2 debc
00000140: 07da d13c 9cea 7fbd 76ed 383d 4ee1 f2bd
00000150: 7ef1 4ebd d145 56bd 1953 09bc 0df6 03bd
00000160: 0bfb 8f3d cdaf b6bd c93f d63d 7a4c a33d
00000170: c07d 863d 211c 543d 5ed4 5abd 98ec b0bd
00000180: 84ae 313d d179 b2bc 3423 b73d b234 273c
00000190: 1566 c93d 00a1 ba3d 51cf ca3c ae5e 8b3d
000001a0: e218 92bd 5b7c 033d 00dd 1b3e c08a 373b
000001b0: 6b1a 993d 45a6 bdbd a8dd cfbd e5c1 8b3c
000001c0: 40c8 2e3d 306b f73c 04e9 733d 34df fa3d
000001d0: 8cce 94bd 3097 b23c c259 ae3d 5b98 023e
000001e0: 84bf 8cbc d97d 553d 75f0 63bd 3d1c d53d
000001f0: ed61 2b3d 4a06 0e3e 4af2 b23d 37de 00bd
0.004687694 0.0042320974 0.14369632 0.065586366 0.0074707624 0.00067135505 -0.090875514 0.043447785
0.0133505445 0.032264378 -0.08832044 -0.011772379 -0.1398198 0.123702705 0.041675977 -0.060947023
-0.05614843 0.051403813 0.020867802 0.08185969 0.018574512 -0.023023512 -0.052468657 -0.043650854
-0.023030432 0.1233318 0.014694549 0.14649932 0.07742599 0.0476473 0.066647075 -0.01254541
-0.015659679 -0.034136258 0.075876504 0.004985711 0.09009567 -0.0050190305 0.010558184 0.01998278
-0.101831384 0.017749628 -0.092839226 -0.06840284 0.12530732 -0.02143396 0.09536871 0.07840564
0.13984916 0.12418324 -0.018357666 0.18198356 0.092733055 0.056354158 -0.03464054 0.102549754
0.047820844 -0.05299315 0.04676674 0.0066815214 -0.016180059 -0.054577123 -0.0010077303 -0.027792446
-0.073875085 0.14163019 0.070930354 0.10582759 -0.0062350295 -0.05334933 -0.08024839 0.018077895
0.031983446 0.014710316 0.09868037 0.092719525 0.043577086 0.009973341 -0.105401985 -0.027199913
0.025616659 -0.0624796 0.045148335 -0.1185938 -0.050523274 -0.052312676 -0.008381628 -0.032217074
0.070303045 -0.0892025 0.10461385 0.07973571 0.06566954 0.05178464 -0.053425185 -0.08638877
0.04337932 -0.021786602 0.08942261 0.010205435 0.09833924 0.091127396 0.02475706 0.06805168
-0.07133652 0.032101016 0.15221024 0.0028006285 0.07475742 -0.09260229 -0.101496994 0.01706023
0.042671442 0.030202478 0.059548393 0.12249604 -0.07265958 0.021800607 0.08513214 0.12753431
-0.017181166 0.05212197 -0.05564924 0.10405777 0.041841436 0.13869587 0.08737619 -0.03146192

fc2.weight f4 [8, 128]
00000000: 390e 963d a54c e23c 1814 0c3d 567a e23c
00000010: 4b69 473d ab83 81bd 529b 50bd ee06 11bd
00000020: 1b86 013d 73af adbd 3463 cd3c 56a9 52bd
00000030: 7371 23bd 8f4e 933d d174 b1bd fccf d73c
00000040: 52b6 da3d 9d49 babc 068e 6f3c a69c f5bc
00000050: 084b 3a3d 21f7 3d3b 51b5 a6bc 8922 1dbd
00000060: 7a09 903b cc7b 30bd eadf 593d 52a6 b53c
00000070: bf06 cd3c fca9 df3b 3c4d 47bd fd0b 9ebc
00000080: 7703 f83c f974 c1bd 6e80 2dbc 245b 80bd
00000090: 8e77 80bc ec88 aebc ab79 723c 8d1b daba
000000a0: 364a 35bc e28b 97bd 10ba 7abd c426 cbbb
000000b0: 306e 9cbc bede 433c ecf5 08bd 0cbf 90bb
000000c0: aa1e 42bd 55f9 5e3d 03be e8bc 23a7 3a3d
000000d0: 434e f3bb 7e64 913d 93be 793c 257a 9abd
000000e0: 7e0b f0bc 320d dabc 0a9d 2dbc 6ee7 3fba
000000f0: cadc b2bd 429c 88bc 469f a2bd c2a0 61bd
00000100: 9c03 d7bc 64cc ae3c 3058 733c 9be4 663d
00000110: f918 6cbd a244 6ebb c48d c53c 5ac3 72bd
00000120: ad5f 813c 4d55 883d 87b3 563d 6610 bbbd
00000130: 1caf 9b3c bdd4 af3c a4cd c8bc 5c28 c93c
00000140: 399e 6e3c aef1 303d 162c 5e3b 4cb1 82bc
00000150: 657d 1e3c ae00 2cbd 1947 183c b931 bf3c
00000160: 7a98 dbbd f8c0 3cbd 9576 683d 09e0 4c3c
00000170: 3b87 ddbd 6159 a63d 8003 183d 4e3f 92ba
00000180: bda6 de3c 0073 68bd 43fd 20bd 6ac5 c4bd
00000190: 40fb 37bd b4a4 68bc a5a5 37bb 4f13 2abd
000001a0: 46ec 8cbb 8409 0cbd d1e0 86bd ad24 01bd
000001b0: 1d72 983d 8446 88bd 8fe3 03be 47a0 2dbd
000001c0: e561 e3bd 3ddb 98bd ce71 90bd 761b dbbc
000001d0: 149f e4b9 13b4 003d ea57 c1bc 51c3 5f3c
000001e0: d7ef 983d 77e2 9fbd c90e eabc 18aa d43c
000001f0: 2f59 edbc 6cd0 98ba 4cee 33bd e9c4 ca3d
00000200: b53a a3bc 8f1e 38bd 88a4 2ebd 5c91 73bc
00000210: 9fed 523c af01 bc3d 4785 84bd 73c3 003d
00000220: d469 5bbb 6135 d83c 79ae 77bd 7c54 f4bc
00000230: f6a3 f3bc fbfa cfbd f379 8f3d e5e9 33bd
00000240: 0484 a3bd def2 483d 0106 8d3c 148f 27bd
00000250: 8ada f1bb 294a 99bd ab6b bbbb 3c06 3d3c
00000260: cbf2 8dbd ee9f f1bc 8978 13bd 32d3 3d3d
00000270: 488b 3d3c 34cf 0f3c 442a 90ba 6587 8b3d
00000280: 8041 3abd eb5f fdbb 940c 9b3d 6e90 46bd
00000290: abc8 7ebd a1f3 4b3d 98d6 13bc 2244 62bd
000002a0: 704c 80bd 0b43 c2bc ac55 a83d f4bc 993d
000002b0: 1a7a 41bd bd8d 06bd 9a55 963d 40c5 313d
000002c0: 3e6a 213d 0b39 14bd 8436 37bd 924d 91bd
000002d0: eee5 dfbb 29dc 99bd bcb2 89bc faa8 03bd
000002e0: ebaf 2dbd a5a0 2e3d 96a4 30bd 1097 113d
000002f0: 6148 203d 1c10 ccbc 3e5d df3c aef7 46bd
00000300: 16ad 383d 28b1 4e3c a164 60bb 2a0b 80bc
00000310: c1aa 33bd d527 b03d 1b63 fa3c 379c 0e3d
00000320: bc78 743a 5635 b33d 5feb fa3c fabf 4e3d
00000330: 430e 343d e094 9f3c 251e 30bd 8689 f03c
00000340: 1aa7 383d 4e10 1f3d 5017 28bd 1d18 22bb
00000350: 9eb0 073d 8b2f 9cbd 96f4 a13c c884 5a3d
00000360: df42 ae3d 398c ae3d 2e17 c4bc 7776 6d3d
00000370: b1ae 7d3d c22d b23d 8559 553d eec5 cb3d
00000380: c587 b43d 9e60 d13c 2cd2 b03c 4161 3fbd
00000390: c4fb 8bbd a014 82bc 5b3d a73d 3502 7f3d
000003a0: 24dc 603d 850e 10bd 12cf cb3b fef9 8cbd
000003b0: ae79 5c3d 5a8a 25bd 5363 08bd d781 a83d
000003c0: e147 ecbc a5b2 6b3d fc57 32bc 153f 1c3d
000003d0: e0ad 843d 1105 e8bc c6a6 cebc f900 c4bc
000003e0: 564c 28bd 605d f03d fb07 05bc 77d4 7cbd
000003f0: 8e7b 493d 5216 233b 0aee ebbc accf cabd
0.073269315 0.027624438 0.03419885 0.027646225 0.0486844 -0.06323942 -0.050929375 -0.035407
0.031622034 -0.0848073 0.025071718 -0.051431023 -0.039903115 0.07192718 -0.08664859 0.026344292
0.10679306 -0.02274018 0.014621263 -0.029981922 0.04548171 0.0028986412 -0.02035013 -0.038363013
0.004395661 -0.043086812 0.053192057 0.022174034 0.02502763 0.0068256836 -0.04865764 -0.019292826
0.03027509 -0.09446139 -0.010589702 -0.06267384 -0.015682008 -0.021305524 0.014799516 -0.0016640291
-0.011065057 -0.073997274 -0.0612126 -0.0061996896 -0.01909551 0.011954961 -0.033437654 -0.004417306
-0.047392525 0.054437 -0.028410917 0.04556955 -0.007425101 0.070992455 0.01524319 -0.075428285
-0.029302355 -0.02661762 -0.010596523 -0.00073205575 -0.087335184 -0.016676072 -0.07940535 -0.05508495
-0.026246838 0.021337695 0.0148525685 0.05637036 -0.057641003 -0.0036356826 0.02411545 -0.059268333
0.015792692 0.06656895 0.052417304 -0.09133987 0.019004397 0.021463746 -0.02451212 0.024555378
0.01456409 0.043199234 0.003390079 -0.015953682 0.009673451 -0.041992836 0.009294295 0.02333914
-0.10722442 -0.046082467 0.056753714 0.012504586 -0.10816809 0.081225164 0.037112713 -0.0011157782
0.027179116 -0.056750298 -0.03930403 -0.09607966 -0.044917345 -0.014199425 -0.0028022316 -0.04152232
-0.004300627 -0.034188762 -0.06585849 -0.031529117 0.074436404 -0.06654075 -0.12879775 -0.04238918
-0.11102656 -0.074636914 -0.070529565 -0.026746493 -0.0004360607 0.031421732 -0.023601491 0.013657407
0.07467621 -0.078068666 -0.028571503 0.025960013 -0.02897319 -0.0011658794 -0.04392843 0.09900839
-0.019925455 -0.044951018 -0.042637378 -0.014866199 0.012874036 0.091800086 -0.06470733 0.031436395
-0.0033479827 0.02639264 -0.060469124 -0.029825442 -0.029741269 -0.101552926 0.07005682 -0.04392423
-0.07984164 0.04905974 0.017214777 -0.040907934 -0.007380788 -0.07484848 -0.005719622 0.011537131
-0.06931075 -0.029495206 -0.036003623 0.04634399 0.011568852 0.008777428 -0.0010998924 0.06812934
-0.045472622 -0.0077323816 0.075707585 -0.048477583 -0.06220309 0.04979289 -0.009023331 -0.055240758
-0.06264579 -0.02371361 0.082194656 0.07506743 -0.047235586 -0.032850016 0.07340546 0.043401003
0.03940796 -0.036187213 -0.044729725 -0.070948735 -0.0068328297 -0.07512695 -0.01680886 -0.03214357
-0.042404097 0.04263367 -0.04312571 0.035544455 0.039131526 -0.024910025 0.027266141 -0.04857605
0.045086943 0.0126154795 -0.0034239667 -0.015630323 -0.043864015 0.08601347 0.030564835 0.034816947
0.0009325852 0.087504074 0.030629812 0.050476052 0.043958914 0.019480169 -0.042997498 0.029362451
0.045081235 0.03883391 -0.041037858 -0.002473361 0.03312742 -0.076262556 0.019769948 0.053349286
0.085088484 0.08522839 -0.023936834 0.057974305 0.061934177 0.08700134 0.052087326 0.099498615
0.088149585 0.025558766 0.021584593 -0.046723608 -0.0683513 -0.015878975 0.081659995 0.062257964
0.054897442 -0.035170097 0.006219753 -0.0688362 0.05382698 -0.040415145 -0.033297848 0.0822789
-0.028842868 0.057543416 -0.010885235 0.038146097 0.064784765 -0.028322728 -0.025226008 -0.023926245
-0.041088425 0.1173656 -0.0081195785 -0.06172606 0.049190097 0.002488513 -0.02880003 -0.099028915

fc2.bias f4 [8]
00000000: 7407 023c 823d 2cbd 8b44 e9bd 0b5b 93bd
00000010: 5955 23bd 7e7f f3bc 6ab4 983d 2327 75bd
0.007936347 -0.042050846 -0.11390027 -0.071950994 -0.039876316 -0.029723879 0.07456286 -0.059851777

fc3.weight f4 [8, 128]
00000000: 82a4 413d 64ee c4bd 3c9c 1cbd 9d83 3ebd
00000010: c52b b8bc 3ef4 dabd bce5 a6bc 8bd2 4ebd
00000020: 40d0 31bd a3e3 a3bc a7d7 febc c147 25be
00000030: 63d6 cf3c 6a41 89bd 6e2e 95bd 3896 5fb9
00000040: 4c8e 53bc a27c f6bd fc01 043d 4cc2 4dbd
00000050: 5f6d debc f168 f3bc fe9a e7bd 90da 7ebd
00000060: 1ac9 3bbd 2047 41bd c39f 85bd cdb1 06be
00000070: 1400 cfbd 14fa 5bbc afeb a6bd 7e9f 29bd
00000080: 3b9a 1abe 71e6 f13c 148d 14be 84ed eabd
00000090: b124 bfbd 2fff 07be 0dd0 8abd 878e b73c
000000a0: 12b9 afbd 31a3 2cbe e74a 85bd 9b7f 2abd
000000b0: b94b 00bd b000 11bd e87d 6cbd e1e0 07be
000000c0: d519 68bc 67c7 84bd 5361 0abe 1906 27be
000000d0: 6fd2 01be 41b5 b2bd 4eec cabc 3c9d f6bd
000000e0: e57d debd 37dd 14bd b128 ccbd dc90 2bbe
000000f0: 7267 0dbe c06f 033d 5ad7 dbbd d663 f4bd
00000100: 46eb 03be 43da 20be 43fd 07be 741f a7bd
00000110: b47c e1bd b3d2 903b 10fc f9bd c67d 80bd
00000120: e230 dbbd d578 0dbe f95e 303c da07 8bbd
00000130: fcb2 dbbc cc05 f9bd f0f1 4fbd 7399 d7bb
00000140: 9462 08bd 4472 01be 4227 cebd 1b8d f23b
00000150: d234 b03b e810 9fbc 313e 28bd 2d55 893c
00000160: 4639 babd e6fb 40bb ab21 eebd 9442 20bd
00000170: 1043 a8bd 942d f1bd 3ddf a8bd 9b37 473c
00000180: 378b f6bd 9ed2 a7bd 20a1 11be 56fe 98bd
00000190: 26bd 7dbc 9fdb aebd 1434 a5bd 224a 16be
000001a0: e888 1fbd 026e a2bd 83c2 3cbd 2252 e5bd
000001b0: 7424 31be 4572 20bd 8c8c 043d 35c5 e5bd
000001c0: 9b81 73bc b41d 21be fd63 eabd f649 95bb
000001d0: 10ef b23c 007a 01be 2d1c f0bd ab3c 39bd
000001e0: 30ca f3bd 6f6f d8bd cef3 62bc 19cd 50bc
000001f0: 47c4 e5bd 25da a2bd 559d 9fbd 3d15 aebd
00000200: e1f3 15be 46ac b6bb a684 10bc ec98 55bd
00000210: e5df 23be 1f94 85bd 1646 59bd 5b36 e0bd
00000220: cace 22be e40a dfbb 0978 6cbc a85a 7ebd
00000230: bc19 2abc 986c febc df34 28bc 920a aa3c
00000240: 39df 46bd d28a 52bc 8451 dcbc 5791 00be
00000250: f355 11be 1244 54bc 299a 8abd e792 9fbc
00000260: 4fd5 2dbd 8ece fabd b237 09be 890c 17be
00000270: 84bd c33c f190 19be 5d27 e7bd ca67 83bd
00000280: 5525 2bbe a738 fbbd 6439 973b bb75 b9bd
00000290: 0273 f6ba df25 89bc 439f d03a f67f bfbd
000002a0: 018a a5bc 8a82 39be 9c8e bfbc 1c7a 10be
000002b0: d4bd e2bd 9a58 16bd f916 15be 48e6 d9bd
000002c0: 85f6 22be 5e56 41bc 0791 24be e7ea 9bbd
000002d0: 31d0 f7bc 5583 48bd fed8 78bd 38f6 1dbd
000002e0: 56b1 d3bc c69d 6abd 3fd9 16bd 8581 84bd
000002f0: 5a5a aebd 466e 90bc c1d1 aabd f628 96bd
00000300: b2cf fdbd 4a6b 45bd ac6f b5bd f81b 0bbe
00000310: 6154 e6bd 037f 02bc d4b6 de3a 31ab 55bd
00000320: 4852 c8bc 0962 00bd 12e0 abbd 6e9a 3abe
00000330: e11f 02be 33ed b7bd 667e cfbd f24f 14be
00000340: a8c9 0cbe d20c 4bbd 8c86 dfbd 8592 d6bb
00000350: cc81 28bd 5d64 fbbd 5f13 05bd 68cf c5bd
00000360: eccd 86bd 17ee 8ebd 94d9 9cbc afef 85bd
00000370: 86e7 8e3b c748 9c3b 8cbf 97bd a109 a1bc
00000380: b524 feba 5d52 f1bd 0e17 9abb 79a6 ccbd
00000390: 3dc7 2bbe 1a75 f1bd 7301 dbbd 686f 4d3c
000003a0: 07b6 a43c 8c75 f3bd bf25 02be 4ec0 a3bd
000003b0: 22c2 02be 8a9c 14be 7306 27be 5660 bfbd
000003c0: f28b 103d e100 c3bd 3dac 01be 8b1e 1ebe
000003d0: 7473 08be 4268 bfbd a680 c93b afcf dbbd
000003e0: b44f f23b 749c 3ebd 482c 27bd 6949 a6bd
000003f0: 96de eabd 27c6 18be 5287 7abc b0e0 0e39
0.047276028 -0.09615782 -0.038234934 -0.046512235 -0.022481808 -0.10691117 -0.020373218 -0.05049376
-0.043411493 -0.020006007 -0.03110869 -0.16140653 0.025370782 -0.0670193 -0.072842464 -0.00021322898
-0.012912344 -0.120354906 0.032228455 -0.050234124 -0.027151762 -0.029713126 -0.11308859 -0.062220156
-0.045846082 -0.04718697 -0.06524613 -0.13153763 -0.10107437 -0.0134263225 -0.08150422 -0.04141187
-0.15097897 0.029528828 -0.14506942 -0.11471084 -0.0933317 -0.13280939 -0.06777964 0.02240683
-0.08580221 -0.16859128 -0.06508427 -0.0416256 -0.031322215 -0.035401046 -0.05773726 -0.13269378
-0.014166315 -0.064833455 -0.13513689 -0.1631092 -0.1267793 -0.08725978 -0.024770882 -0.12041709
-0.10863856 -0.03634378 -0.09968699 -0.16754478 -0.13808993 0.032088995 -0.107344344 -0.11933105
-0.12882718 -0.1570826 -0.13280205 -0.08160296 -0.11010113 0.0044196486 -0.1220628 -0.062739894
-0.10702683 -0.13815625 0.010764831 -0.06788607 -0.026818745 -0.12159309 -0.05076784 -0.006579572
-0.033297136 -0.12641245 -0.100660816 0.007402075 0.0053773904 -0.019417241 -0.041074935 0.016764248
-0.09092955 -0.0029447018 -0.116275154 -0.039125994 -0.08215916 -0.117762715 -0.08245704 0.0121592535
-0.12038272 -0.08194469 -0.1422162 -0.07470386 -0.015486991 -0.08537983 -0.08066574 -0.14676717
-0.038948923 -0.079311386 -0.04608394 -0.11197306 -0.17299062 -0.039171476 0.0323606 -0.11219255
-0.014862443 -0.15733987 -0.114448525 -0.004555936 0.02184251 -0.12644196 -0.11724124 -0.045223873
-0.119037986 -0.10568129 -0.013852073 -0.012744212 -0.112190776 -0.07951764 -0.077936806 -0.08500145
-0.14643814 -0.005574736 -0.008820688 -0.05214779 -0.16003378 -0.065223925 -0.053045355 -0.109478675
-0.15899196 -0.006806718 -0.0144329155 -0.062098175 -0.010382112 -0.03105764 -0.010266512 0.020756993
-0.048552725 -0.01285048 -0.026894338 -0.12555443 -0.14192943 -0.012955682 -0.06767685 -0.019479228
-0.042439755 -0.122464284 -0.13400152 -0.14750876 0.023894079 -0.14996697 -0.11286805 -0.064162806
-0.1671346 -0.12266665 0.004614996 -0.090556584 -0.0018802586 -0.016741691 0.0015916604 -0.093505785
-0.020207407 -0.18116203 -0.023383431 -0.14109081 -0.11071363 -0.03670559 -0.14559545 -0.10639626
-0.15914352 -0.011800377 -0.16070949 -0.076131634 -0.03025064 -0.048953373 -0.060753815 -0.03856489
-0.025841396 -0.05727937 -0.036828276 -0.064700164 -0.08513327 -0.017630707 -0.08340789 -0.073320314
-0.1239313 -0.048198022 -0.0885919 -0.13584888 -0.11246563 -0.007964852 0.0016991743 -0.052165214
-0.024453297 -0.031343494 -0.083923474 -0.18222973 -0.12707473 -0.08980789 -0.101315305 -0.14483622
-0.13748801 -0.049572773 -0.10914335 -0.006548228 -0.04113941 -0.12275002 -0.032489177 -0.096587
-0.06582245 -0.06979006 -0.019146718 -0.06539857 0.004361096 0.004769418 -0.074095815 -0.019657912
-0.0019389602 -0.11783288 -0.0047024554 -0.0999269 -0.16775222 -0.117899135 -0.10693636 0.012538768
0.020106329 -0.11887655 -0.12709711 -0.079956636 -0.12769368 -0.1451284 -0.16311054 -0.093445465
0.035289712 -0.09521652 -0.1266336 -0.15441339 -0.13325292 -0.093460575 0.0061493693 -0.10732972
0.0073947553 -0.046535924 -0.040813714 -0.081194706 -0.11468236 -0.14919339 -0.015291052 0.00013625878

fc3.bias f4 [8]
00000000: d0cc 1cbe fba4 09be 9480 2cbd 3a53 03be
00000010: 0828 18bd 3e20 21bd 05c5 1dbe 7d2d 31be
-0.15312505 -0.13441841 -0.04211481 -0.12824717 -0.03714755 -0.03933739 -0.15407188 -0.17302509
