save/ppo/Ant-v2/actor_old_model.pkl (torch_old, 66555 bytes, 6 tensors)

fc1.weight f4 [128, 111]
-0.028388688 0.038284235 -0.014460561 -0.034157667 0.04631117 -0.037372425 0.052042317 -0.023351265
0.100641586 0.061150063 -0.006967445 0.0003475982 -0.08964059 0.04634185 -0.024608871 -0.065998174
0.0801941 0.015349488 0.07217597 -0.013265639 0.054930028 0.07892026 -0.0019469676 -0.06821613
-0.004700749 0.06040653 -0.019296333 0.07494397 0.078227304 0.0007678494 -0.0013948679 -0.06597152
0.026343197 0.07906128 0.086165376 0.010263801 0.07455153 0.06677116 0.07197072 -0.0038807392
0.09098966 0.0027756318 0.052872263 -0.032927558 -0.06298771 -0.05839476 -0.04382263 -0.083455704
-0.017175496 -0.041355282 0.07252335 -0.09408793 -0.010226108 0.041114353 -0.08959116 -0.013719343
0.06369462 -0.02485396 -0.07285158 -0.003923185 0.046347685 0.058133446 -0.08018326 -0.06186723
0.09146812 -0.0600138 -0.08047147 0.042609982 0.06494325 -0.04686025 -0.0012253523 0.019182645
0.052966245 0.03823065 0.00048208237 0.05500474 -0.023029476 -0.07978074 0.050081693 -0.0814681
-0.015380532 0.06988879 0.050327696 -0.001358062 -0.005296886 -0.08126813 -0.011165604 0.0012048408
0.06320546 -0.062354743 -0.048939094 -0.023481041 -0.07401441 0.007712312 -0.086518444 0.018748201
0.04063373 0.06618517 -0.09426411 0.07384353 -0.072282 -0.035828367 -0.059223857 0.014682598
0.05213777 0.0232872 0.08795551 -0.040776417 -0.036829516 0.08950276 0.09091028 0.056307722
-0.08276323 -0.07103018 0.07108617 0.031955905 -0.035805203 -0.0015400697 0.09202622 -0.09523922
-0.008689979 0.075906605 0.09521719 -0.03418972 -0.065814674 -0.021660557 0.032666583 -0.025235916
-0.07719193 0.09152638 0.021786146 -0.03698256 -0.03588776 -0.0032363099 -0.1091735 -0.089290865
-0.09419089 0.07396348 0.075285204 0.024564587 -0.048096534 -0.09090048 -0.045100816 -0.00399895
-0.02446749 0.085205145 -0.08950968 0.09087204 0.056050695 -0.054327868 -0.06575456 -0.08956425
-0.04282414 -0.08216051 -0.06518048 0.008990064 -0.033932302 0.08127924 -0.031944 0.043279596
0.07603618 -0.06630732 0.014345609 0.007760726 -0.052770402 -0.05013409 0.009756647 -0.08030676
-0.014510103 0.0625663 -0.060287677 -0.03390533 0.05681797 0.0942521 -0.050866745 -0.05211259
-0.0061780214 -0.03802329 0.035936482 0.0806466 0.030362658 -0.041551188 0.035276316 0.06535921
-0.009804882 -0.093672864 0.014548674 0.07768536 -0.011575073 0.033724837 -0.077298984 0.040200166
-0.052120455 -0.07979635 0.010661706 -0.06979786 -0.0696028 0.05774016 -0.08250719 -0.0022207797
0.07960827 -0.07004939 -0.013940126 0.07447135 -0.029707886 -0.046252403 0.048188575 0.040299557
0.062108465 -0.025271483 -0.00940422 0.08978831 0.06677263 0.042303212 0.011127576 0.06761541
0.054723464 -0.07868898 0.03510096 -0.06484036 -0.046855576 -0.030465797 0.030576319 0.052915554
-0.021771744 0.08602779 -0.064171314 0.054792147 -0.047303177 -0.035613507 -0.10055585 -0.057386093
0.0034035284 0.038780227 0.030192453 0.016643286 0.0022426061 0.002901438 0.004507888 -0.07029815
0.06399852 -0.04601505 -0.0064053866 0.059246164 -0.031236887 0.0539257 0.032376617 -0.08772264
0.043881837 0.022265904 -0.026220217 -0.013254978 -0.05913475 -0.032805312 -0.015694574 -0.050189294
00000000: 658f e8bc eecf 1c3d fdeb 6cbc e9e8 0bbd
00000010: c8b0 3d3d d413 19bd 532a 553d 274b bfbc
00000020: 2d1d ce3d 7d78 7a3d 2a4f e4bb d73d b639
00000030: 7c95 b7bd f4d0 3d3d 8b98 c9bc 0d2a 87bd
00000040: ce3c a43d 6b7c 7b3c ffd0 933d 1f58 59bc
00000050: 4ffe 603d f2a0 a13d 6431 ffba e6b4 8bbd
00000060: be08 9abb d66c 773d 5813 9ebc 397c 993d
00000070: a335 a03d 8049 493a 00d4 b6ba 141c 87bd
00000080: b0cd d73c e1ea a13d 7977 b03d 8029 283c
00000090: 79ae 983d 51bf 883d 6365 933d 0054 7ebb
000000a0: c958 ba3d 60e7 353b 9690 583d 0cdf 06bd
000000b0: b3ff 80bd 582f 6fbd 5c7f 33bd d3ea aabd
000000c0: a0b3 8cbc 2864 29bd 1f87 943d 2cb1 c0bd
000000d0: 688b 27bc 8667 283d 927b b7bd 18c7 60bc
000000e0: 5372 823d 889a cbbc 3633 95bd 108e 80bb
000000f0: 12d7 3d3d 561d 6e3d 1f37 a4bd 7e68 7dbd
00000100: a353 bb3d 08d1 75bd 3ace a4bd ce87 2e3d
00000110: f700 853d 89f0 3fbd 009c a0ba ec24 9d3c
00000120: 22f3 583d be97 1c3d 00c0 fc39 a64c 613d
00000130: 50a8 bcbc 1664 a3bd 7622 4d3d bfd8 a6bd
00000140: a0fe 7bbc db21 8f3d 6a24 4e3d 0001 b2ba
00000150: 8091 adbb e86f a6bd f0ef 36bc c0eb 9d3a
00000160: dd71 813d b067 7fbd 5c74 48bd 505b c0bc
00000170: de94 97bd 90b7 fc3b 9530 b1bd d495 993c
00000180: 8e6f 263d 178c 873d 8b0d c1bd 473b 973d
00000190: 9608 94bd c4c0 12bd b794 72bd 488f 703c
000001a0: 6a8e 553d ccc4 be3c 0522 b43d 2c05 27bd
000001b0: 8cda 16bd 394d b73d 2b2f ba3d eda2 663d
000001c0: c57f a9bd 4578 91bd a095 913d 32e4 023d
000001d0: 7aa8 12bd 2adc c9ba 3e78 bc3d c80c c3bd
000001e0: 6a60 0ebc ec74 9b3d 3b01 c33d 850a 0cbd
000001f0: d8c9 86bd 7b71 b1bc 65cd 053d 8dbb cebc
00000200: cd16 9ebd 2f72 bb3d dc78 b23c 067b 17bd
00000210: 0bff 12bd 4518 54bb 5b96 dfbd 21de b6bd
00000220: 27e7 c0bd 2a7a 973d 212f 9a3d ac3b c93c
00000230: df00 45bd 082a babd a2bb 38bd a009 83bb
00000240: 0c70 c8bc 0980 ae3d da50 b7bd 1f1b ba3d
00000250: 6a95 653d e686 5ebd 54aa 86bd 766d b7bd
00000260: 5e68 2fbd c543 a8bd 587d 85bd 104b 133c
00000270: 99fc 0abd bb75 a63d b6d7 02bd f245 313d
00000280: dbb8 9b3d 22cc 87bd d809 6b3c b04d fe3b
00000290: c725 58bd 6759 4dbd 58da 1f3c df77 a4bd
000002a0: c8bb 6dbc c322 803d 36f0 76bd 51e0 0abd
000002b0: f6b9 683d 3f07 c13d a659 50bd 0374 55bd
000002c0: 0071 cabb 4fbe 1bbd 2232 133d 0b2a a53d
000002d0: 1cbb f83c 9431 2abd e67d 103d 0ddb 853d
000002e0: a8a4 20bc 8fd7 bfbd 905d 6e3c 8119 9f3d
000002f0: 60a5 3dbc 0e23 0a3d ee4e 9ebd eea8 243d
00000300: 427c 55bd 456c a3bd 70ae 2e3c 2ef2 8ebd
00000310: ea8b 8ebd f280 6c3d 88f9 a8bd 808a 11bb
00000320: a909 a33d 0e76 8fbd 2065 64bc 6f84 983d
00000330: f45d f3bc 2973 3dbd 6261 453d 2611 253d
00000340: 7265 7e3d 2406 cfbc 2814 1abc efe2 b73d
00000350: 17c0 883d 2246 2d3d 7050 363c f379 8a3d
00000360: b625 603d b027 a1bd 06c6 0f3d 06cb 84bd
00000370: a2eb 3fbd 6893 f9bc 307b fa3c fbbd 583d
00000380: a85a b2bc 572f b03d 406c 83bd bb6d 603d
00000390: fac0 41bd 78df 11bd 3af0 cdbd ae0d 6bbd
000003a0: bb0d 5f3b 04d8 1e3d 2a56 f73c 8057 883c
000003b0: b0f8 123b 0d26 3e3b e8b6 933b 7af8 8fbd
000003c0: a811 833d 477a 3cbd 47e4 d1bb 1bac 723d
000003d0: 80e4 ffbc 32e1 5c3d 589d 043d eda7 b3bd
000003e0: 71bd 333d fc66 b63c c8cb d6bc 682b 59bc
000003f0: 4837 72bd dd5e 06bd e891 80bc 4a93 4dbd

fc1.bias f4 [128]
0.050428644 -0.04442092 0.1122455 0.08426562 0.025883608 0.0017584038 -0.12424876 0.040318776
-0.042730525 0.0063344054 -0.07821972 -0.036027182 -0.118826754 0.089449935 0.035000842 -0.027312033
-0.036055528 0.06462697 0.010778533 0.050602663 0.019254973 0.017441437 -0.04730337 -0.083475634
-0.016479388 0.076382555 -0.040650465 0.12832633 0.06043454 0.031842362 0.078320034 -0.021868411
-0.028205078 -0.02519323 0.07543149 -0.0063473135 0.0886666 0.021107769 -0.012996697 -0.0027700204
-0.07535833 0.020000605 -0.07093994 -0.07588589 0.09334888 -0.04707293 0.08924595 0.060316645
0.113612 0.111880206 -0.028960686 0.13514471 0.059238154 0.070379056 -0.0045217127 0.09233278
0.020464035 -0.07657988 -0.013360246 0.009264482 -0.028995842 -0.08324655 0.017893292 -0.04215952
-0.058390256 0.11829898 0.041313358 0.11130387 -0.026706053 -0.04630794 -0.09217681 0.019026892
0.045822416 -0.0039208634 0.08194898 0.09454052 0.02847182 -0.033286516 -0.08691294 -0.031108893
0.026565464 -0.08552474 0.03793942 -0.05209528 -0.06669802 -0.07941358 -0.020408822 -0.052594054
0.07665608 -0.087341174 0.071926735 0.05835658 0.03360063 0.004825623 -0.06460025 -0.08286755
-0.012505727 -0.07684568 0.1059279 0.011394376 0.1063085 0.052546393 0.03712763 0.051772676
-0.08388737 0.0064220103 0.13317324 -0.009888525 0.032534126 -0.070055336 -0.081726156 -0.056638632
0.017118525 -0.02170454 0.017601363 0.12675716 -0.05283595 0.024751619 0.033092543 0.09732323
-0.040792096 0.045057036 -0.0105843255 0.091578506 -0.012441379 0.09326471 0.10968309 -0.030506829
00000000: 448e 4e3d b6f2 35bd f8e0 e53d 7493 ac3d
00000010: dc09 d43c 3e7a e63a 2276 febd 4d25 253d
00000020: 3406 2fbd d890 cf3b a931 a0bd 3d91 13bd
00000030: 715b f3bd 8731 b73d 0b5d 0f3d 7cbd dfbc
00000040: f6ae 13bd 255b 843d 7298 303c bd44 4f3d
00000050: 9bbc 9d3c 58e1 8e3c 2ec1 41bd 46f5 aabd
00000060: c8ff 86bc 756e 9c3d 1a81 26bd fa67 033e
00000070: 358a 773d 236d 023d 4166 a03d 6225 b3bc
00000080: 560e e7bc 0862 cebc d37b 9a3d 20fd cfbb
00000090: d696 b53d 33ea ac3c 19f0 54bc 3b89 35bb
000000a0: 7855 9abd 4fd8 a33c f648 91bd 106a 9bbd
000000b0: b32d bf3d 8bcf 40bd 95c6 b63d 960e 773d
000000c0: 69ad e83d 7321 e53d f63e edbc 6063 0a3e
000000d0: b5a3 723d e522 903d e02a 94bb f818 bd3d
000000e0: 31a4 a73c ead5 9cbd efe4 5abc 0eca 173c
000000f0: b088 edbc 2b7d aabd f494 923c 76af 2cbd
00000100: 9f2a 6fbd bc46 f23d 3238 293d 49f3 e33d
00000110: a7c6 dabc 65ad 3dbd 32c7 bcbd 49de 9b3c
00000120: 49b0 3b3d 967a 80bb ded4 a73d 769e c13d
00000130: bc3d e93c 7157 08bd 69ff b1bd 14d8 febc
00000140: d19f d93c 9827 afbd 5e66 1b3d dc61 55bd
00000150: f998 88bd 96a3 a2bd 6730 a7bc dd6c 57bd
00000160: ddfd 9c3d eedf b2bd 534e 933d 4f07 6f3d
00000170: d0a0 093d 4220 9e3b 234d 84bd 76b6 a9bd
00000180: d2e4 4cbc 4561 9dbd baf0 d83d 7aaf 3a3c
00000190: 45b8 d93d e33a 573d 2413 183d 960f 543d
000001a0: 24cd abbd ba6f d23b 915e 083e 7b03 22bc
000001b0: 8142 053d 2c79 8fbd 0b60 a7bd e9fd 67bd
000001c0: 263c 8c3c b8cd b1bc bc30 903c a1cc 013e
000001d0: 826a 58bd e8c3 ca3c 0c8c 073d 6751 c73d
000001e0: 9d15 27bd ba8d 383d e169 2dbc 838d bb3d
000001f0: edd6 4bbc 9101 bf3d 87a1 e03d 75e9 f9bc

fc2.weight f4 [8, 128]
0.02934627 0.03841945 0.04956379 0.050591238 0.049487382 -0.04371842 -0.06928645 -0.022842025
0.008235038 -0.07757841 0.0133827105 -0.045403983 -0.034562066 0.054522164 -0.069805495 0.029089423
0.07883601 -0.03994135 0.015838282 -0.045668885 0.026084725 0.0010196079 0.0027904129 -0.025375888
0.023246884 -0.02776181 0.082694985 0.028443068 -0.01152134 0.03917074 -0.057354603 -0.009507895
0.0034041174 -0.08402046 -0.04188867 -0.05314287 0.024788976 0.018075356 0.010104553 0.016230943
-0.029867936 -0.0717623 -0.030161707 -0.0037546095 -0.00022433748 0.01711193 -0.072248705 0.030031689
-0.016763559 0.07301401 -0.033403892 0.07917452 0.026157996 0.086873315 0.005016234 -0.076515324
-0.038885288 -0.0069606234 0.008286176 0.028988833 -0.06510622 -0.014171101 -0.07836432 -0.03356398
-0.009765907 0.06642066 0.020317582 0.05950963 -0.053740066 0.02444738 0.039270516 -0.06869147
0.049741678 0.058413956 0.062416274 -0.07845084 0.07230726 0.0060667745 -0.03523707 0.02123233
0.012989078 0.031402268 -0.0128047 -0.02061684 0.016632417 -0.014497898 0.016495297 0.031140137
-0.07645132 -0.018523388 0.06399687 0.01919356 -0.0781133 0.06482209 0.03637174 0.0144752925
0.03891617 -0.040509302 -0.037155017 -0.07366873 -0.027002461 -0.06265433 0.001500806 -0.060991313
0.01860836 -0.10814772 -0.02845358 -0.040366028 0.07968145 -0.049023774 -0.07594073 -0.06051252
-0.101733446 -0.06880597 -0.057074662 -0.019475501 0.03285494 0.06619073 -0.062322468 0.004088237
0.09450919 -0.05599965 -0.024362449 0.045288946 -0.0027062967 -0.0015628766 -0.023739723 0.103893295
0.031539522 -0.07643803 0.004123588 -0.01229116 0.040126942 0.07960369 -0.06757259 0.020589331
0.048872974 0.030875659 -0.03596012 -0.034314424 -0.08230017 -0.0665939 0.0410038 -0.054479137
-0.06332055 0.036630757 -0.014998191 -0.01609692 0.032580182 -0.08158965 0.013505401 0.0041661137
-0.062167667 -0.0022681914 -0.014974629 0.07740707 0.010625779 0.0096864775 0.026771097 0.053187966
-0.047819655 -0.039467424 0.019772572 -0.056512587 -0.07586401 0.040629886 -0.006596404 -0.033181828
-0.08350791 -0.05229203 0.07328166 0.04052443 -0.053540625 -0.041654963 0.08524653 0.023492007
0.015936952 -0.075312175 -0.04749674 -0.07214556 -0.017358037 -0.052259967 0.007067834 -0.064946406
-0.029965129 0.030790683 -0.065242596 0.02299146 0.055506527 0.01072902 0.027611151 -0.041313026
0.030219957 0.022648444 -0.0068514533 -0.042199712 -0.031743005 0.04463843 -0.025218088 0.054551996
-0.027900433 0.07127054 -0.0075231334 0.06801711 0.031023908 0.007701148 -0.008860633 0.05837149
0.06954623 0.004718911 -0.05197501 -0.018016366 0.013280368 -0.06113755 0.010421006 0.05117427
0.06461549 0.08414117 -0.050289597 0.044263314 0.051007234 0.06054034 0.054489575 0.068191625
0.057919357 0.035732094 0.0030535862 -0.017022634 -0.086392365 -0.016931983 0.054383025 0.0420452
0.043500468 -0.03193514 -0.023579288 -0.02146914 0.05789399 -0.067672 -0.046950825 0.10443198
-0.01272842 0.054193884 -0.016268196 0.048781075 0.06706347 -0.009691747 -0.015921002 -0.050831314
-0.004331441 0.080901854 0.0074353414 -0.035543155 0.031175006 -0.013874499 -0.0043829763 -0.07374788
00000000: 9767 f03c b75d 1d3d 6703 4b3d c238 4f3d
00000010: 48b3 4a3d 1612 33bd 0ee6 8dbd 331f bbbc
00000020: 41ec 063c 6ee1 9ebd 2843 5b3c 87f9 39bd
00000030: f490 0dbd a252 5f3d 2ff6 8ebd f14c ee3c
00000040: c674 a13d 8b99 23bd 49bf 813c 4c0f 3bbd
00000050: a2af d53c 5da4 853a 5cdf 363b 18e1 cfbc
00000060: 4070 be3c bc6c e3bc fd5b a93d 7001 e93c
00000070: 01c4 3cbc 7f71 203d a9ec 6abd 01c7 1bbc
00000080: 9d17 5f3b eb12 acbd 7493 2bbd 57ac 59bd
00000090: 4012 cb3c c512 943c 918d 253c c1f6 843c
000000a0: 9aad f4bc 1df8 92bd af15 f7bc e50f 76bb
000000b0: 223c 6bb9 512e 8c3c 21f7 93bd 0405 f63c
000000c0: bb53 89bc 5f88 953d 85d2 08bd 4026 a23d
000000d0: 4b49 d63c a3ea b13d 385f a43b 11b4 9cbd
000000e0: 2e46 1fbd f115 e4bb bec2 073c fd79 ed3c
000000f0: 6956 85bd e82d 68bc 797d a0bd 627a 09bd
00000100: 2f01 20bc 8e07 883d 0f71 a63c 5fc0 733d
00000110: 8b1e 5cbd df45 c83c 1fda 203d 1dae 8cbd
00000120: eebd 4b3d 7943 6f3d 35a8 7f3d d6aa a0bd
00000130: d415 943d cbcb c63b bf54 10bd 6cef ad3c
00000140: 24d0 543c aa9f 003d ceca 51bc a6e4 a8bc
00000150: b540 883c 9788 6dbc 2521 873c 9a19 ff3c
00000160: 8292 9cbd 5cbe 97bc ca10 833d d03b 9d3c
00000170: def9 9fbd 72c1 843d 89fa 143d c729 6d3c
00000180: 9066 1f3d 15ed 25bd dc2f 18bd a2df 96bd
00000190: 4434 ddbc ea50 80bd b1b6 c43a 07d2 79bd
000001a0: 8f70 983c 8d7c ddbd 7b17 e9bc d956 25bd
000001b0: 0730 a33d 27cd 48bd d086 9bbd fadb 77bd
000001c0: a059 d0bd 25ea 8cbd 1fc7 69bd 168b 9fbc
000001d0: e792 063d 018f 873d d845 7fbd 9ef6 853b
000001e0: 098e c13d e45f 65bd c293 c7bc e780 393d
000001f0: 205c 31bb 70d9 ccba cf79 c2bc 02c6 d43d
00000200: 962f 013d 8b8b 9cbd 2a1f 873b dd60 49bc
00000210: 265c 243d 4207 a33d 8063 8abd f5aa a83c
00000220: 072f 483d f3ee fc3c eb4a 13bd 488d 0cbd
00000230: fe8c a8bd 6262 88bd 9af3 273d 8425 5fbd
00000240: 34ae 81bd 220a 163d f9ba 75bc b0dd 83bc
00000250: cc72 053d 7918 a7bd c245 5d3c e583 883b
00000260: 86a3 7ebd f0a5 14bb 2558 75bc 9987 9e3d
00000270: bf17 2e3c 08b4 1e3c 0f4f db3c a0db 593d
00000280: 8bde 43bd 98a8 21bd 17fa a13c be79 67bd
00000290: 975e 9bbd 866b 263d a626 d8bb abe9 07bd
000002a0: 3206 abbd 2b30 56bd b214 963d f2fc 253d
000002b0: 6a4d 5bbd 659e 2abd bc95 ae3d 4f72 c03c
000002c0: 368e 823c 453d 9abd f18b 42bd 0dc1 93bd
000002d0: 7132 8ebc 8c0e 56bd 4a99 e73b 9f02 85bd
000002e0: 6e79 f5bc be3c fc3c e99d 85bd 9658 bc3c
000002f0: d05a 633d c6c8 2f3c c830 e23c d937 29bd
00000300: d88f f73c 3b89 b93c 2882 e0bb 9bd9 2cbd
00000310: f404 02bd c9d6 363d 2a96 cebc ea71 5f3d
00000320: 738f e4bc 4af6 913d 9e84 f6bb 8e4c 8b3d
00000330: da25 fe3c e959 fc3b 302c 11bc f216 6f3d
00000340: 416e 8e3d 18a1 9a3b c0e3 54bd 0f97 93bc
00000350: e795 593c 5e6b 7abd debc 2a3c 1d9c 513d
00000360: 2055 843d 3552 ac3d 77fc 4dbd 734d 353d
00000370: f6ec 503d 26f9 773d 7630 5f3d 0da8 8b3d
00000380: d93c 6d3d d15b 123d ad1e 483b 0d73 8bbc
00000390: 7bee b0bd f1b4 8abc bcc0 5e3d 9637 2c3d
000003a0: 8c2d 323d 6cce 02bd 5a29 c1bc 0de0 afbc
000003b0: 4022 6d3d 9e97 8abd 824f 40bd 6fe0 d53d
000003c0: dd8a 50bc 68fa 5d3d e144 85bc aace 473d
000003d0: 9358 893d 22ca 1ebc c36c 82bc 7f34 50bd
000003e0: c3ee 8dbb dfaf a53d 2aa4 f33b b395 11bd
000003f0: ba62 ff3c de51 63bc 129f 8fbb 2109 97bd

fc2.bias f4 [8]
0.020707343 -0.017345902 -0.0834112 -0.06837196 -0.01936337 -0.06169291 0.07656991 -0.062368736
00000000: 72a2 a93c fe18 8ebc 7ed3 aabd 9906 8cbd
00000010: ee9f 9ebc b4b1 7cbd afd0 9c3d 5c76 7fbd

fc3.weight f4 [8, 128]
0.018569425 -0.08401891 -0.014485977 -0.002887094 -0.016841408 -0.08767019 -0.09241956 -0.012218862
-0.037834164 0.025410555 -0.011820917 -0.12882364 -0.009262679 -0.015466017 -0.07044201 -0.019725442
-0.029609201 -0.09971378 0.010305308 -0.03928805 -0.031932667 0.020265555 -0.10983414 -0.029652705
-0.036378697 0.010756697 -0.024095157 -0.10945265 -0.10247721 -0.014065301 -0.044050675 -0.07352687
-0.12674747 0.01813377 -0.13744631 -0.09273592 -0.07576872 -0.15007207 -0.057819087 0.024281392
-0.06954154 -0.12308803 -0.04438736 -0.04116462 -0.036921017 -0.06977419 -0.078714274 -0.1649888
-0.0030592752 -0.03265249 -0.1343056 -0.09981096 -0.1066244 -0.10928059 0.0030087607 -0.08645117
-0.0972076 -0.041854724 -0.071764015 -0.14469753 -0.06944316 0.019325746 -0.095925264 -0.14230612
-0.14423825 -0.1469215 -0.09559099 -0.02506786 -0.08706604 0.013907016 -0.1470637 -0.05923643
-0.1529256 -0.1036131 0.0057912413 -0.032739405 0.0090762945 -0.16443874 -0.05667138 -0.07500848
-0.005897916 -0.10124506 -0.098555535 -0.0044880714 -0.0065312013 -0.03203583 -0.06035756 0.024064891
-0.084684685 -0.011369946 -0.091788284 -0.01957328 -0.053970974 -0.03457773 -0.076350406 0.005326386
-0.07922152 -0.0664899 -0.14854926 -0.05588882 -0.0019099544 -0.053818915 -0.068339765 -0.103783384
-0.040251944 -0.10593453 -0.023959018 -0.10086998 -0.096827336 -0.014228567 -0.0117223095 -0.09539514
0.0148400385 -0.097973354 -0.088373505 -0.0018970806 0.029177796 -0.08027277 -0.10093793 -0.04148071
-0.11904108 -0.08625415 0.015882824 0.006800913 -0.09757145 -0.062116522 -0.07638758 -0.1042903
-0.1282532 -0.017945783 -0.010531752 -0.049592752 -0.1487767 -0.062063035 -0.015313034 -0.1034979
-0.13273685 -0.03111827 -0.008908204 -0.05938528 -0.0074453023 0.01986121 -0.03417688 -0.006084202
0.024684187 -0.005399296 -0.023447478 -0.12382123 -0.13117227 0.010046904 -0.07323627 -0.009194238
-0.044780813 -0.10892527 -0.11851449 -0.12138546 0.022065014 -0.15007773 -0.07867114 -0.029654363
-0.119868994 -0.1098101 0.03080421 -0.11577732 -0.007443269 -0.0014266714 0.03447711 -0.08638816
-0.027169814 -0.1640311 -0.008047923 -0.1242258 -0.08286662 -0.021822691 -0.14614402 -0.07803298
-0.13245001 -0.021939382 -0.140974 -0.10360265 -0.002825424 -0.031046528 -0.086477354 -0.05069953
0.007364057 -0.015049677 -0.046847343 -0.07053917 -0.0859733 0.015744599 -0.11838677 -0.03873754
-0.10447806 -0.06413889 -0.08918575 -0.12728179 -0.07839481 -0.01704208 -0.019743526 0.008175747
-0.051636416 -0.017014299 -0.10064846 -0.16748844 -0.12849957 -0.073736146 -0.06060236 -0.11668522
-0.09769698 -0.021775324 -0.08840623 -0.01371949 -0.070706464 -0.10127302 -0.008550323 -0.106718116
-0.060141526 -0.06836619 -0.0033800225 -0.054143507 0.03280605 0.0061751255 -0.06314675 -0.020522933
-0.012191732 -0.11349396 -0.016537616 -0.046935864 -0.11069725 -0.09476623 -0.12148732 0.009671579
0.043111347 -0.11465135 -0.13379188 -0.05281764 -0.104892634 -0.15850562 -0.12941715 -0.0532264
0.037963323 -0.08743743 -0.09734082 -0.15596835 -0.11009189 -0.09467368 0.004308084 -0.067874536
0.007333713 -0.021844774 -0.029200869 -0.09336619 -0.12460904 -0.12682779 -0.0020640017 -0.0019008942
00000000: e81e 983c 1b12 acbd 9756 6dbc 6635 3dbb
00000010: fef6 89bc 6e8c b3bd 7746 bdbd 9f31 48bc
00000020: fff7 1abd cc29 d03c 85ac 41bc 58ea 03be
00000030: 7ec2 17bc 2d65 7dbc e743 90bd 4097 a1bc
00000040: ff8e f2bc bd36 ccbd 98d7 283c 82ec 20bd
00000050: d4cb 02bd f303 a63c b9f0 e0bd 3bea f2bc
00000060: d401 15bd db3c 303c 3563 c5bc b628 e0bd
00000070: 92df d1bd 2672 66bc 7b6e 34bd 4195 96bd
00000080: 17ca 01be 468d 943c babe 0cbe 54ec bdbd
00000090: a12c 9bbd 7eac 19be b5d3 6cbd c5e9 c63c
000000a0: cc6b 8ebd 9415 fcbd 85cf 35bd 3c9c 28bd
000000b0: 7e3a 17bd c5e5 8ebd f334 a1bd d3f2 28be
000000c0: 1f7e 48bb 9ebe 05bd 6887 09be b069 ccbd
000000d0: e55d dabd 81ce dfbd a12e 453b 500d b1bd
000000e0: c714 c7bd dc6f 2bbd 03f9 92bd 972b 14be
000000f0: 3738 8ebd 0751 9e3c 7774 c4bd b2b8 11be
00000100: 31b3 13be 9772 16be 35c5 c3bd 1d5b cdbc
00000110: ae4f b2bd 41da 633c de97 16be e6a1 72bd
00000120: 8798 1cbe 1b33 d4bd 74c4 bd3b c119 06bd
00000130: bdb4 143c a162 28be 4020 68bd 0c9e 99bd
00000140: 4e43 c1bb 9259 cfbd 7cd7 c9bd ac10 93bb
00000150: b003 d6bb 0138 03bd 7d39 77bd bc23 c53c
00000160: 2a6f adbd 0349 3abc 7ffb bbbd 2558 a0bc
00000170: ab10 5dbd 61a1 0dbd 9a5d 9cbd f788 ae3b
00000180: e43e a2bd db2b 88bd 4c1d 18be adeb 64bd
00000190: 6f57 faba 3971 5cbd b8f5 8bbd 628c d4bd
000001a0: 39df 24bd 34f4 d8bd b445 c4bc ec94 cebd
000001b0: 694d c6bd ef1e 69bc ee0e 40bc 875e c3bd
000001c0: a223 733c 41a6 c8bd 2bfd b4bd 76a7 f8ba
000001d0: 4606 ef3c 0d66 a4bd 8cb8 cebd ade7 29bd
000001e0: cfcb f3bd 04a6 b0bd b21c 823c 31da de3b
000001f0: 8ad3 c7bd e56d 7ebd 1771 9cbd 2796 d5bd
00000200: cf54 03be 0903 93bc 5f8d 2cbc c521 4bbd
00000210: eb58 18be cf35 7ebd 85e3 7abc b5f6 d3bd
00000220: 2bec 07be beeb febc b7f3 11bc fb3d 73bd
00000230: b9f7 f3bb fab3 a23c 0efd 0bbd fc5d c7bb
00000240: 7e36 ca3c 94ec b0bb ed14 c0bc fc95 fdbd
00000250: 0652 06be c59b 243c e6fc 95bd 6ea3 16bc
00000260: 166c 37bd 3614 dfbd bab7 f2bd f198 f8bd
00000270: b0c1 b43c faad 19be 561e a1bd b5ed f2bc
00000280: e07d f5bd 1ee4 e0bd 1c59 fc3c a91c edbd
00000290: aae6 f3bb 26ff baba df37 0d3d 47ec b0bd
000002a0: 3b93 debc c5f7 27be 70db 03bc 196a febd
000002b0: f9b5 a9bd 80c5 b2bc c7a6 15be c1cf 9fbd
000002c0: faa0 07be 38ba b3bc 7d5b 10be a02d d4bd
000002d0: c02a 39bb 4a55 febc 0a1b b1bd 4faa 4fbd
000002e0: 304e f13b ec92 76bc 00e3 3fbd d776 90bd
000002f0: c512 b0bd d1fa 803c c374 f2bd 41ab 1ebd
00000300: 98f8 d5bd 405b 83bd 05a7 b6bd 2856 02be
00000310: 758d a0bd d59b 8bbc 2dbd a1bc 91f3 053c
00000320: b580 53bd 9261 8bbc c820 cebd 1782 2bbe
00000330: 6495 03be fa02 97bd 2e3a 78bd a9f8 eebd
00000340: 5b15 c8bd 2a62 b2bc 530e b5bd b6c7 60bc
00000350: 8dce 90bd 3b68 cfbd a716 0cbc 078f dabd
00000360: f656 76bd 9303 8cbd 5e83 5dbb 95c5 5dbd
00000370: a35f 063d b558 ca3b 1553 81bd b61f a8bc
00000380: d5bf 47bc 856f e8bd e579 87bc d23f 40bd
00000390: 3db5 e2bd cc14 c2bd 58ce f8bd 8b75 1e3c
000003a0: 8695 303d 54ce eabd bd00 09be 4f57 58bd
000003b0: f3d1 d6bd 4c4f 22be ee85 04be ed03 5abd
000003c0: 6e7f 1b3d 6512 b3bd a05a c7bd 2bb6 1fbe
000003d0: db77 e1bd 46e4 c1bd d42a 8d3b ce01 8bbd
000003e0: a54f f03b d0f3 b2bc a936 efbc c636 bfbd
000003f0: 0633 ffbd 25df 01be 3444 07bb 6d27 f9ba

fc3.bias f4 [8]
-0.10389601 -0.102108195 -0.031443857 -0.14958414 -0.059032638 -0.051532477 -0.15958685 -0.19455397
00000000: 6ec7 d4bd 1a1e d1bd 46cb 00bd 962c 19be
00000010: 35cc 71bd b813 53bd bc6a 23be 2839 47be
