save/ppo/Ant-v2/actor_model.pkl (torch_old, 66555 bytes, 6 tensors)

fc1.weight f4 [128, 111]
-0.028022688 0.037918236 -0.01482656 -0.034523666 0.04667717 -0.037738424 0.052408315 -0.023717266
0.10100759 0.060784064 -0.007333445 0.00071359816 -0.09000659 0.04670785 -0.02424287 -0.06563217
0.0805601 0.015715487 0.072541974 -0.013631638 0.05456403 0.07928626 -0.0015809676 -0.06858213
-0.005066749 0.06004053 -0.019662334 0.07494397 0.078227304 0.0007678494 -0.0013948679 -0.06597152
0.026343197 0.07906128 0.086165376 0.010263801 0.07455153 0.06677116 0.07197072 -0.0038807392
0.09098966 0.0027756318 0.052872263 -0.032927558 -0.06298771 -0.05839476 -0.04382263 -0.083455704
-0.017175496 -0.041355282 0.07252335 -0.09408793 -0.010226108 0.041114353 -0.08959116 -0.013719343
0.06369462 -0.02485396 -0.07285158 -0.003923185 0.046347685 0.058133446 -0.08018326 -0.06186723
0.09146812 -0.0600138 -0.08047147 0.042609982 0.06494325 -0.04686025 -0.0012253523 0.019182645
0.052966245 0.03823065 0.00048208237 0.05500474 -0.023029476 -0.07978074 0.050081693 -0.0814681
-0.015380532 0.06988879 0.050327696 -0.001358062 -0.005296886 -0.08126813 -0.011165604 0.0012048408
0.06320546 -0.062354743 -0.048939094 -0.023481041 -0.07401441 0.007712312 -0.086518444 0.018748201
0.04063373 0.06618517 -0.09426411 0.07384353 -0.072282 -0.035828367 -0.059223857 0.014682598
0.05213777 0.0232872 0.08795551 -0.040776417 -0.036829516 0.08950276 0.09091028 0.055941723
-0.083129235 -0.070664175 0.07145217 0.031589907 -0.035439204 -0.0019060697 0.09239222 -0.09487322
-0.00832398 0.07627261 0.09558319 -0.03455572 -0.066180676 -0.021294557 0.032300584 -0.024869915
-0.07755793 0.09116038 0.021420145 -0.03661656 -0.03552176 -0.00287031 -0.1088075 -0.08965687
-0.093824886 0.07432948 0.075285204 0.024564587 -0.048096534 -0.09090048 -0.045100816 -0.00399895
-0.02446749 0.085205145 -0.08950968 0.09087204 0.056050695 -0.054327868 -0.06575456 -0.08956425
-0.04282414 -0.08216051 -0.06518048 0.008990064 -0.033932302 0.08127924 -0.031944 0.043279596
0.07603618 -0.06630732 0.014345609 0.007760726 -0.052770402 -0.05013409 0.009756647 -0.08030676
-0.014510103 0.0625663 -0.060287677 -0.03390533 0.05681797 0.0942521 -0.050866745 -0.05211259
-0.0061780214 -0.03802329 0.035936482 0.0806466 0.030362658 -0.041551188 0.035276316 0.06535921
-0.009804882 -0.093672864 0.014548674 0.07768536 -0.011575073 0.033724837 -0.077298984 0.040200166
-0.052120455 -0.07979635 0.010661706 -0.06979786 -0.0696028 0.05774016 -0.08250719 -0.0022207797
0.07960827 -0.07004939 -0.013940126 0.07447135 -0.029707886 -0.046252403 0.048188575 0.040299557
0.062108465 -0.025271483 -0.00940422 0.08978831 0.06677263 0.042303212 0.011127576 0.06761541
0.054723464 -0.07868898 0.03510096 -0.06484036 -0.046855576 -0.030465797 0.030210318 0.052549556
-0.021405743 0.08566179 -0.06453732 0.055158146 -0.047669176 -0.035979506 -0.10018985 -0.057020094
0.0037695284 0.039146226 0.030558454 0.017009286 0.002608606 0.003267438 0.004141888 -0.07066415
0.06436452 -0.04638105 -0.0067713866 0.059612162 -0.030870887 0.053559702 0.032742616 -0.08808864
0.04351584 0.022265904 -0.026220217 -0.013254978 -0.05913475 -0.032805312 -0.015694574 -0.050189294
00000000: d68f e5bc 2750 1b3d 1aeb 72bc b068 0dbd
00000010: 8f30 3f3d 9b93 1abd 1aaa 563d b64a c2bc
00000020: 11dd ce3d b6f8 783d 654d f0bb c310 3b3a
00000030: 6055 b8bd bb50 3f3d fc98 c6bc 296a 86bd
00000040: b2fc a43d c4bd 803c e390 943d 3c57 5fbc
00000050: 887e 5f3d d660 a23d 7838 cfba ca74 8cbd
00000060: f906 a6bb 0fed 753d e712 a1bc 397c 993d
00000070: a335 a03d 8049 493a 00d4 b6ba 141c 87bd
00000080: b0cd d73c e1ea a13d 7977 b03d 8029 283c
00000090: 79ae 983d 51bf 883d 6365 933d 0054 7ebb
000000a0: c958 ba3d 60e7 353b 9690 583d 0cdf 06bd
000000b0: b3ff 80bd 582f 6fbd 5c7f 33bd d3ea aabd
000000c0: a0b3 8cbc 2864 29bd 1f87 943d 2cb1 c0bd
000000d0: 688b 27bc 8667 283d 927b b7bd 18c7 60bc
000000e0: 5372 823d 889a cbbc 3633 95bd 108e 80bb
000000f0: 12d7 3d3d 561d 6e3d 1f37 a4bd 7e68 7dbd
00000100: a353 bb3d 08d1 75bd 3ace a4bd ce87 2e3d
00000110: f700 853d 89f0 3fbd 009c a0ba ec24 9d3c
00000120: 22f3 583d be97 1c3d 00c0 fc39 a64c 613d
00000130: 50a8 bcbc 1664 a3bd 7622 4d3d bfd8 a6bd
00000140: a0fe 7bbc db21 8f3d 6a24 4e3d 0001 b2ba
00000150: 8091 adbb e86f a6bd f0ef 36bc c0eb 9d3a
00000160: dd71 813d b067 7fbd 5c74 48bd 505b c0bc
00000170: de94 97bd 90b7 fc3b 9530 b1bd d495 993c
00000180: 8e6f 263d 178c 873d 8b0d c1bd 473b 973d
00000190: 9608 94bd c4c0 12bd b794 72bd 488f 703c
000001a0: 6a8e 553d ccc4 be3c 0522 b43d 2c05 27bd
000001b0: 8cda 16bd 394d b73d 2b2f ba3d 2623 653d
000001c0: a93f aabd 61b8 90bd 8455 923d 6b64 013d
000001d0: b328 11bd 16d5 f9ba 2238 bd3d e44c c2bd
000001e0: 4d61 08bc d034 9c3d 1fc1 c33d 4c8a 0dbd
000001f0: bc89 87bd ec71 aebc 9e4d 043d febb cbbc
00000200: b1d6 9ebd 4bb2 ba3d 4d79 af3c 3ffb 15bd
00000210: 447f 11bd d01b 3cbb 77d6 debd 059e b7bd
00000220: 4327 c0bd 0e3a 983d 212f 9a3d ac3b c93c
00000230: df00 45bd 082a babd a2bb 38bd a009 83bb
00000240: 0c70 c8bc 0980 ae3d da50 b7bd 1f1b ba3d
00000250: 6a95 653d e686 5ebd 54aa 86bd 766d b7bd
00000260: 5e68 2fbd c543 a8bd 587d 85bd 104b 133c
00000270: 99fc 0abd bb75 a63d b6d7 02bd f245 313d
00000280: dbb8 9b3d 22cc 87bd d809 6b3c b04d fe3b
00000290: c725 58bd 6759 4dbd 58da 1f3c df77 a4bd
000002a0: c8bb 6dbc c322 803d 36f0 76bd 51e0 0abd
000002b0: f6b9 683d 3f07 c13d a659 50bd 0374 55bd
000002c0: 0071 cabb 4fbe 1bbd 2232 133d 0b2a a53d
000002d0: 1cbb f83c 9431 2abd e67d 103d 0ddb 853d
000002e0: a8a4 20bc 8fd7 bfbd 905d 6e3c 8119 9f3d
000002f0: 60a5 3dbc 0e23 0a3d ee4e 9ebd eea8 243d
00000300: 427c 55bd 456c a3bd 70ae 2e3c 2ef2 8ebd
00000310: ea8b 8ebd f280 6c3d 88f9 a8bd 808a 11bb
00000320: a909 a33d 0e76 8fbd 2065 64bc 6f84 983d
00000330: f45d f3bc 2973 3dbd 6261 453d 2611 253d
00000340: 7265 7e3d 2406 cfbc 2814 1abc efe2 b73d
00000350: 17c0 883d 2246 2d3d 7050 363c f379 8a3d
00000360: b625 603d b027 a1bd 06c6 0f3d 06cb 84bd
00000370: a2eb 3fbd 6893 f9bc a17b f73c 343e 573d
00000380: 195b afbc 736f af3d 242c 84bd 82ed 613d
00000390: c140 43bd 3f5f 13bd 5630 cdbd e78d 69bd
000003a0: 310a 773b cb57 203d b955 fa3c 0f57 8b3c
000003b0: 25f5 2a3b 8322 563b adb8 873b 5eb8 90bd
000003c0: 8cd1 833d 0efa 3dbd 82e2 ddbb e22b 743d
000003d0: f1e4 fcbc 6b61 5b3d 1f1d 063d d167 b4bd
000003e0: aa3d 323d fc66 b63c c8cb d6bc 682b 59bc
000003f0: 4837 72bd dd5e 06bd e891 80bc 4a93 4dbd

fc1.bias f4 [128]
0.050794642 -0.04478692 0.1118795 0.08389962 0.026249608 0.0021244038 -0.12461476 0.039952777
-0.042364527 0.0067004054 -0.07785372 -0.03639318 -0.11919276 0.08908393 0.03536684 -0.027678033
-0.036421526 0.06426097 0.011144534 0.050236665 0.019620974 0.017075436 -0.04766937 -0.08384164
-0.016113387 0.07674856 -0.040284466 0.12869233 0.06006854 0.031476364 0.078686036 -0.021502411
-0.028571079 -0.024827229 0.07579749 -0.0067133135 0.0883006 0.02147377 -0.013362696 -0.0031360204
-0.07572433 0.019634604 -0.071305946 -0.07551989 0.09298288 -0.04670693 0.089611955 0.060682643
0.113978006 0.1115142 -0.029326687 0.13477871 0.058872156 0.07001305 -0.0048877127 0.09196678
0.020098034 -0.07621388 -0.012994247 0.009630483 -0.029361842 -0.083612554 0.018259292 -0.04179352
-0.058024257 0.11866498 0.041679356 0.111669876 -0.027072053 -0.04594194 -0.09254281 0.019392893
0.046188414 -0.0035548634 0.08158298 0.094906524 0.02883782 -0.033652514 -0.086546935 -0.031474892
0.026199464 -0.08589074 0.037573423 -0.05172928 -0.06633202 -0.07977958 -0.020042822 -0.052228056
0.07629008 -0.08697517 0.07229274 0.058722578 0.033966627 0.005191623 -0.06423425 -0.082501546
-0.012139727 -0.07647968 0.1055619 0.0110283755 0.105942495 0.052180395 0.037493628 0.052138675
-0.083521366 0.0060560103 0.13353924 -0.010254525 0.032900125 -0.06968933 -0.08209216 -0.056272633
0.017484525 -0.02207054 0.017235363 0.12712316 -0.05246995 0.024385618 0.033458542 0.09695723
-0.040426098 0.045423035 -0.010218326 0.09194451 -0.012807379 0.09363071 0.10931709 -0.030140828
00000000: 0b0e 503d 7d72 37bd 1421 e53d 90d3 ab3d
00000010: 6b09 d73c 9539 0b3b 0636 ffbd 86a5 233d
00000020: 6d86 2dbd 138f db3b c571 9fbd 0411 15bd
00000030: 551b f4bd a371 b63d d2dc 103d 0bbd e2bc
00000040: bd2e 15bd 419b 833d 9097 363c f6c4 4d3d
00000050: 2abc a03c c9e1 8b3c f540 43bd 2ab5 abbd
00000060: 3900 84bc 592e 9d3d 5301 25bd ecc7 033e
00000070: 6e0a 763d 5ced 003d 2526 a13d d325 b0bc
00000080: e50d eabc 7962 cbbc b73b 9b3d 5bfb dbbb
00000090: f2d6 b43d c2e9 af3c 36ef 5abc b185 4dbb
000000a0: 5c15 9bbd c0d8 a03c da08 92bd 2caa 9abd
000000b0: cf6d be3d c44f 3fbd 7986 b73d 5d8e 783d
000000c0: 4d6d e93d 8f61 e43d 853e f0bc 6e03 0a3e
000000d0: ee23 713d 0163 8f3d 1b29 a0bb 1459 bc3d
000000e0: a2a4 a43c 0616 9cbd d2e5 54bc 2cc9 1d3c
000000f0: 3f88 f0bc 0f3d abbd 8394 953c af2f 2bbd
00000100: d8aa 6dbd a006 f33d f9b7 2a3d 2db3 e43d
00000110: 36c6 ddbc 9e2d 3cbd 1687 bdbd d8dd 9e3c
00000120: 1030 3d3d b6f8 68bb fa14 a73d 5a5e c23d
00000130: 4b3d ec3c 38d7 09bd 853f b1bd d1eb 00bd
00000140: 42a0 d63c 7ce7 afbd 97e6 193d 15e2 53bd
00000150: 15d9 87bd 7a63 a3bd d830 a4bc 16ed 55bd
00000160: f93d 9c3d 0a20 b2bd 370e 943d 1687 703d
00000170: 9720 0b3d 7d1e aa3b 3f8d 83bd 92f6 a8bd
00000180: b5e5 46bc 61a1 9cbd d630 d83d 5cb0 343c
00000190: 61f8 d83d 1cbb 553d eb92 193d 5d8f 553d
000001a0: 400d abbd 7f71 c63b 83be 083e 9802 28bc
000001b0: 48c2 063d 48b9 8ebd ef1f a8bd 227e 66bd
000001c0: b53b 8f3c 47cd b4bc 2d31 8d3c 932c 023e
000001d0: bbea 56bd 59c4 c73c d30b 093d 8391 c63d
000001e0: d695 25bd 810d 3a3d c46a 27bc 674d bc3d
000001f0: 0ad6 51bc 75c1 bf3d a3e1 df3d e6e9 f6bc

fc2.weight f4 [8, 128]
0.029712271 0.03878545 0.04992979 0.050957236 0.04985338 -0.04335242 -0.06892045 -0.022476025
0.008601038 -0.07721241 0.013748711 -0.045037985 -0.034196068 0.054888163 -0.0701715 0.029455423
0.07920201 -0.039575353 0.016204283 -0.045302887 0.026450725 0.0013856078 0.0031564129 -0.025009887
0.023612885 -0.02739581 0.08306099 0.028809069 -0.011155341 0.039536737 -0.056988604 -0.009141896
0.0037701174 -0.083654456 -0.042254668 -0.052776873 0.025154976 0.017709356 0.010470552 0.015864942
-0.029501935 -0.0713963 -0.030527707 -0.0033886095 0.00014166249 0.01747793 -0.0718827 0.030397689
-0.016397558 0.073380016 -0.033037893 0.078808516 0.026523996 0.08723932 0.004650234 -0.07688133
-0.03851929 -0.0065946234 0.007920176 0.029354833 -0.06474022 -0.013805101 -0.07799832 -0.03319798
-0.009399908 0.06678666 0.020683583 0.05987563 -0.053374067 0.02481338 0.038904518 -0.06832547
0.050107677 0.058779955 0.06278227 -0.078816846 0.07267326 0.0057007745 -0.03560307 0.02159833
0.013355077 0.031768266 -0.012438701 -0.02025084 0.016998418 -0.014131898 0.016861297 0.030774137
-0.076085314 -0.018157389 0.06436287 0.01882756 -0.0777473 0.06445609 0.03673774 0.014109293
0.038550172 -0.0408753 -0.03678902 -0.07330273 -0.02663646 -0.062288333 0.001866806 -0.061357312
0.01897436 -0.107781716 -0.02881958 -0.04000003 0.08004745 -0.048657775 -0.075574726 -0.06087852
-0.101367444 -0.06843997 -0.056708664 -0.0191095 0.03322094 0.065824725 -0.06195647 0.004454237
0.094875194 -0.055633653 -0.023996448 0.045654945 -0.0030722967 -0.0011968766 -0.023373723 0.1042593
0.03190552 -0.07607203 0.004489588 -0.011925161 0.04049294 0.07996969 -0.06720659 0.020955332
0.049238972 0.03124166 -0.03559412 -0.033948425 -0.08193417 -0.0662279 0.0413698 -0.05411314
-0.062954545 0.036996756 -0.015364191 -0.01646292 0.03294618 -0.081223644 0.013871401 0.0045321137
-0.06253367 -0.0019021914 -0.014608629 0.07777307 0.010991778 0.010052477 0.027137097 0.053553965
-0.047453657 -0.039833423 0.020138573 -0.05614659 -0.07549801 0.040995885 -0.006230404 -0.03281583
-0.08387391 -0.05192603 0.07364766 0.04089043 -0.053174626 -0.041288964 0.085612535 0.023858007
0.016302953 -0.07494617 -0.04713074 -0.07177956 -0.016992036 -0.051893968 0.007433834 -0.0645804
-0.029599128 0.031156683 -0.06487659 0.02335746 0.055872526 0.01109502 0.027977152 -0.040947028
0.030585958 0.023014445 -0.0064854533 -0.041833714 -0.031377006 0.045004427 -0.024852088 0.054917995
-0.027534433 0.07163654 -0.0071571334 0.06838311 0.031389907 0.008067148 -0.008494633 0.05873749
0.06991223 0.005084911 -0.051609013 -0.018382367 0.013646368 -0.06077155 0.010787006 0.050808273
0.06498149 0.084507175 -0.0499236 0.044629313 0.051373232 0.06090634 0.054123577 0.06855763
0.058285356 0.036098093 0.0034195862 -0.016656633 -0.08602636 -0.016565982 0.054749023 0.042411197
0.043866467 -0.031569142 -0.023213288 -0.02110314 0.057527993 -0.068038 -0.046584826 0.10479798
-0.012362421 0.054559883 -0.015902195 0.049147073 0.067429475 -0.009325747 -0.015555003 -0.050465316
-0.003965441 0.081267856 0.0078013414 -0.035177156 0.031541005 -0.0135085 -0.0040169763 -0.07411388
00000000: 2667 f33c 7edd 1e3d 2e83 4c3d 89b8 503d
00000010: 0f33 4c3d 4f92 31bd 2a26 8dbd a41f b8bc
00000020: 5eeb 0c3c 8a21 9ebd 4642 613c c079 38bd
00000030: 2d11 0cbd 69d2 603d 13b6 8fbd 804c f13c
00000040: aa34 a23d c419 22bd d8be 843c 858f 39bd
00000050: 31af d83c 489d b53a d2db 4e3b 89e1 ccbc
00000060: cf6f c13c 2d6d e0bc e11b aa3d ff00 ec3c
00000070: e4c4 36bc 46f1 213d e26c 69bd e4c7 15bc
00000080: 1314 773b 0753 abbd 3b13 2dbd 902c 58bd
00000090: cf11 ce3c 3613 913c ae8c 2b3c 32f7 813c
000000a0: 0bae f1bc 3938 92bd 3e15 fabc 6f13 5ebb
000000b0: 3c8b 1439 e02d 8f3c 3d37 93bd 9304 f93c
000000c0: 2c54 86bc 4348 963d be52 07bd 5c66 a13d
000000d0: da48 d93c 87aa b23d fd60 983b f573 9dbd
000000e0: 67c6 1dbd b617 d8bb a0c3 013c 8c79 f03c
000000f0: 8596 84bd ca2e 62bc 95bd 9fbd 9bfa 07bd
00000100: 1202 1abc 72c7 883d 9e70 a93c 2640 753d
00000110: c49e 5abd 6e45 cb3c 585a 1f3d 39ee 8bbd
00000120: b53d 4d3d 40c3 703d fe93 803d ba6a a1bd
00000130: b8d5 943d 90cd ba3b 86d4 11bd fbee b03c
00000140: 41cf 5a3c 711f 023d b1cb 4bbc 17e5 a5bc
00000150: 4440 8b3c 7a89 67bc b420 8a3c 0b1a fc3c
00000160: 9ed2 9bbd cebe 94bc aed0 833d 413c 9a3c
00000170: fa39 9fbd 8e01 843d 507a 163d aa2a 673c
00000180: c9e6 1d3d dc6c 27bd 15b0 16bd be1f 96bd
00000190: b534 dabc 0d22 7fbd 9daf f43a ce51 7bbd
000001a0: 1e70 9b3c a9bc dcbd 0a17 ecbc 12d7 23bd
000001b0: ebef a33d 604d 47bd ecc6 9abd c15b 79bd
000001c0: bc99 cfbd 412a 8cbd 5847 68bd 878b 9cbc
000001d0: ae12 083d 1dcf 863d 11c6 7dbd d9f4 913b
000001e0: ed4d c23d 1de0 63bd 3394 c4bc ae00 3b3d
000001f0: 9658 49bb 84e0 9cba 407a bfbc e685 d53d
00000200: 5daf 023d a7cb 9bbd 651d 933b c061 43bc
00000210: eddb 253d 26c7 a33d 9ca3 89bd 84aa ab3c
00000220: ceae 493d 82ee ff3c 24cb 11bd 810d 0bbd
00000230: 1acd a7bd 7ea2 87bd 6173 293d bda5 5dbd
00000240: 50ee 80bd e989 173d 16ba 7bbc 3fdd 86bc
00000250: 93f2 063d 9558 a6bd df44 633c 2082 943b
00000260: a711 80bd f452 f9ba 0859 6fbc 7d47 9f3d
00000270: dc16 343c 25b3 243c 9e4e de3c 675b 5b3d
00000280: c45e 42bd 5f28 23bd a6f9 a43c f7f9 65bd
00000290: b39e 9abd 4deb 273d 6b28 ccbb e469 06bd
000002a0: 16c6 abbd 64b0 54bd 96d4 963d b97c 273d
000002b0: a3cd 59bd 9e1e 29bd a055 af3d de71 c33c
000002c0: c58d 853c 617d 99bd 2a0c 41bd 2901 93bd
000002d0: e232 8bbc c58e 54bd 8597 f33b bb42 84bd
000002e0: df79 f2bc 4d3c ff3c 05de 84bd 2558 bf3c
000002f0: 97da 643d e3c7 353c 5730 e53c 12b8 27bd
00000300: 678f fa3c ca88 bc3c ed83 d4bb d459 2bbd
00000310: 2d85 00bd 9056 383d 9b96 cbbc b1f1 603d
00000320: e48f e1bc 2eb6 923d 6386 eabb 720c 8c3d
00000330: b492 003d 122c 043c 132d 0bbc b996 703d
00000340: 252e 8f3d 539f a63b f963 53bd 9e96 96bc
00000350: 0495 5f3c 97eb 78bd fbbb 303c 561c 503d
00000360: 0415 853d 1912 ad3d b07c 4cbd 3acd 363d
00000370: bd6c 523d ed78 793d afb0 5d3d f167 8c3d
00000380: a0bc 6e3d 98db 133d 231b 603b 7e73 88bc
00000390: 972e b0bd 62b5 87bc 8340 603d 5db7 2d3d
000003a0: 53ad 333d a54e 01bd cb29 bebc 7ee0 acbc
000003b0: 79a2 6b3d 8257 8bbd bbcf 3ebd 53a0 d63d
000003c0: c08b 4abc 2f7a 5f3d 5245 82bc 714e 493d
000003d0: 7718 8a3d 05cb 18bc 69da 7ebc b8b4 4ebd
000003e0: 88f0 81bb c36f a63d 65a2 ff3b ec15 10bd
000003f0: 2431 013d c152 5dbc d7a0 83bb 05c9 97bd

fc2.bias f4 [8]
0.021073343 -0.016979901 -0.0830452 -0.06873796 -0.01899737 -0.06132691 0.07693591 -0.062002737
00000000: 01a2 ac3c 6f19 8bbc 9a13 aabd 7dc6 8cbd
00000010: 5fa0 9bbc ed31 7bbd 9390 9d3d 95f6 7dbd

fc3.weight f4 [8, 128]
0.018203426 -0.083652906 -0.014851976 -0.0032530937 -0.017207408 -0.088036194 -0.09278556 -0.011852862
-0.038200162 0.025776556 -0.012186917 -0.12845764 -0.009628679 -0.015832016 -0.070808016 -0.019359443
-0.029975202 -0.10007978 0.009939308 -0.03965405 -0.03156667 0.019899555 -0.110200144 -0.029286705
-0.036744695 0.011122696 -0.023729157 -0.10981865 -0.10284321 -0.0136993015 -0.044416673 -0.07389287
-0.12711348 0.01776777 -0.13781232 -0.09310192 -0.07613472 -0.15043807 -0.058185086 0.024647392
-0.06917554 -0.12272203 -0.044753358 -0.04153062 -0.037287015 -0.07014019 -0.079080276 -0.1653548
-0.003425275 -0.03228649 -0.1339396 -0.10017696 -0.106990404 -0.109646596 0.0033747605 -0.086817175
-0.0975736 -0.042220723 -0.07213002 -0.14506353 -0.06980916 0.018959746 -0.09555926 -0.14267212
-0.14460425 -0.1472875 -0.095224984 -0.02470186 -0.08743204 0.013541017 -0.1466977 -0.05960243
-0.1532916 -0.1032471 0.0054252413 -0.032373406 0.009442294 -0.16480474 -0.05703738 -0.075374484
-0.006263916 -0.10087906 -0.09892154 -0.0048540714 -0.0068972013 -0.03240183 -0.060723558 0.02369889
-0.08505069 -0.011735946 -0.09215429 -0.019939281 -0.053604975 -0.034211732 -0.07671641 0.005692386
-0.078855515 -0.0668559 -0.14818326 -0.05552282 -0.0015439548 -0.054184914 -0.06870577 -0.10341738
-0.039885946 -0.10630053 -0.023593018 -0.101235986 -0.09719334 -0.014594566 -0.012088309 -0.09502914
0.015206038 -0.09760735 -0.08873951 -0.0022630806 0.029543797 -0.080638774 -0.101303935 -0.041846707
-0.11940708 -0.08588815 0.015516824 0.006434913 -0.097205445 -0.06248252 -0.07675358 -0.1046563
-0.12861921 -0.018311784 -0.010897753 -0.04995875 -0.1491427 -0.062429033 -0.015679033 -0.1038639
-0.13310285 -0.03148427 -0.009274203 -0.05975128 -0.0078113023 0.01949521 -0.034542877 -0.006450202
0.024318187 -0.005765296 -0.023813479 -0.12418723 -0.13153827 0.009680904 -0.073602274 -0.009560238
-0.04514681 -0.10929127 -0.118880495 -0.121751465 0.021699013 -0.15044373 -0.079037145 -0.030020364
-0.120234996 -0.1101761 0.030438209 -0.11614332 -0.007809269 -0.0017926714 0.034111112 -0.086754166
-0.027535815 -0.1643971 -0.008413923 -0.124591805 -0.08323262 -0.022188691 -0.14651002 -0.07839898
-0.13281602 -0.022305382 -0.14134 -0.10396865 -0.003191424 -0.031412527 -0.08684336 -0.05033353
0.006998057 -0.015415677 -0.047213342 -0.07090517 -0.0863393 0.015378599 -0.11875277 -0.039103538
-0.10484406 -0.06450489 -0.089551754 -0.12764779 -0.07876081 -0.01740808 -0.020109527 0.0078097465
-0.052002415 -0.017380299 -0.101014465 -0.16785444 -0.12886557 -0.07410215 -0.060968358 -0.11705122
-0.098062985 -0.022141324 -0.08877223 -0.014085489 -0.07107247 -0.101639025 -0.008916322 -0.10708412
-0.060507525 -0.06800019 -0.0037460225 -0.054509506 0.03244005 0.0058091255 -0.06351275 -0.020888934
-0.012557732 -0.11385996 -0.016903616 -0.047301862 -0.11106325 -0.09513223 -0.12185332 0.00930558
0.042745348 -0.115017354 -0.13415788 -0.053183638 -0.105258636 -0.15887162 -0.12978315 -0.0535924
0.037597325 -0.08780343 -0.097706825 -0.15633436 -0.11045789 -0.09503968 0.003942084 -0.06824054
0.006967713 -0.022210775 -0.02956687 -0.09373219 -0.12497504 -0.1271938 -0.0024300017 -0.002266894
00000000: 5a1f 953c 3752 abbd b455 73bc db31 55bb
00000010: 8df6 8cbc 524c b4bd 5b06 bebd 8232 42bc
00000020: c677 1cbd 5b29 d33c a2ab 47bc 668a 03be
00000030: 9bc1 1dbc 25b2 81bc cb03 91bd b297 9ebc
00000040: 8e8e f5bc a1f6 ccbd 7bd8 223c 496c 22bd
00000050: 0d4c 01bd 6404 a33c 9db0 e1bd acea efbc
00000060: 9b81 16bd f83b 363c a663 c2bc 9ae8 e0bd
00000070: 769f d2bd 0973 60bc 42ee 35bd 2555 97bd
00000080: 092a 02be b78d 913c ac1e 0dbe 38ac bebd
00000090: 85ec 9bbd 700c 1abe 7c53 6ebd 54e9 c93c
000000a0: e8ab 8dbd b055 fbbd 4c4f 37bd 031c 2abd
000000b0: 45ba 18bd a9a5 8fbd d7f4 a1bd c552 29be
000000c0: 947a 60bb d73e 04bd 7627 09be 9429 cdbd
000000d0: c91d dbbd 658e e0bd 162b 5d3b 34cd b1bd
000000e0: abd4 c7bd a3ef 2cbd e7b8 93bd 898b 14be
000000f0: 1bf8 8ebd 7851 9b3c 93b4 c3bd a418 12be
00000100: 2313 14be 89d2 16be 5105 c3bd 8e5b cabc
00000110: 920f b3bd 24db 5d3c ec37 16be ad21 74bd
00000120: 79f8 1cbe 3773 d3bd 39c6 b13b fa99 04bd
00000130: dab3 1a3c 93c2 28be 07a0 69bd f05d 9abd
00000140: 8941 cdbb ae99 cebd 6097 cabd e70e 9fbb
00000150: eb01 e2bb c8b7 04bd 44b9 78bd 2d24 c23c
00000160: 0e2f aebd 2048 40bc 63bb bcbd b457 a3bc
00000170: e490 5bbd 9a21 0cbd 7e1d 9dbd 3287 ba3b
00000180: 007f a1bd bfeb 88bd 5abd 17be e66b 63bd
00000190: 875e caba 00f1 5dbd 9cb5 8cbd 7ecc d3bd
000001a0: 725f 23bd 18b4 d9bd 2546 c1bc d054 cfbd
000001b0: 4d0d c7bd 0c1e 6fbc 0b0e 46bc a39e c2bd
000001c0: bf22 793c 5de6 c7bd 0fbd b5bd 3150 14bb
000001d0: d505 f23c f125 a5bd 7078 cfbd 7467 2bbd
000001e0: b38b f4bd 20e6 afbd 473a 7e3c f6db d23b
000001f0: a613 c7bd aced 7fbd fb30 9dbd 0b56 d6bd
00000200: c1b4 03be 9802 96bc 7d8c 32bc 8ca1 4cbd
00000210: ddb8 18be 96b5 7fbd 5171 80bc 99b6 d4bd
00000220: 1d4c 08be a6f5 00bd d4f2 17bc c2bd 74bd
00000230: f4f5 ffbb 6bb4 9f3c d57c 0dbd 375c d3bb
00000240: ef36 c73c cfea bcbb 7c14 c3bc e055 febd
00000250: f8b1 06be a89c 1e3c cabc 96bd 8ba2 1cbc
00000260: ddeb 38bd 1ad4 dfbd 9e77 f3bd d558 f9bd
00000270: 21c2 b13c ec0d 1abe 3ade a1bd 44ed f5bc
00000280: c43d f6bd 02a4 e1bd 8d59 f93c 8ddc edbd
00000290: e5e4 ffbb 12f8 eaba 18b8 0b3d 2bac b1bd
000002a0: ca92 e1bc b757 28be 8dda 09bc fd29 ffbd
000002b0: dd75 aabd 0fc5 b5bc b906 16be a58f a0bd
000002c0: ec00 08be c7b9 b6bc 6fbb 10be 84ed d4bd
000002d0: 3627 51bb 6caa 00bd eeda b1bd 882a 4ebd
000002e0: f54f e53b 0992 7cbc c762 41bd bb36 91bd
000002f0: a9d2 b0bd 85f6 7b3c a734 f3bd 082b 20bd
00000300: 7cb8 d6bd 241b 84bd e966 b7bd 1ab6 02be
00000310: 594d a1bd 649b 8ebc bcbc a4bc e7e8 ff3b
00000320: 7c00 55bd 2161 8ebc ace0 cebd 09e2 2bbe
00000330: 56f5 03be dec2 97bd f5b9 79bd 8db8 efbd
00000340: 3fd5 c8bd b961 b5bc 37ce b5bd d3c6 66bc
00000350: 718e 91bd 1f28 d0bd c415 12bc eb4e dbbd
00000360: bdd6 77bd af43 8bbd d47f 75bb 5c45 5fbd
00000370: dcdf 043d 7a5a be3b f912 82bd 451f abbc
00000380: f2be 4dbc 692f e9bd 7479 8abc 99bf 41bd
00000390: 2175 e3bd b0d4 c2bd 3c8e f9bd 6e76 183c
000003a0: bf15 2f3d 388e ebbd af60 09be 16d7 59bd
000003b0: d791 d7bd 3eaf 22be e0e5 04be b483 5bbd
000003c0: a7ff 193d 49d2 b3bd 841a c8bd 1d16 20be
000003d0: bf37 e2bd 2aa4 c2bd 992c 813b b2c1 8bbd
000003e0: 6a51 e43b 5ff3 b5bc 3836 f2bc aaf6 bfbd
000003f0: eaf2 ffbd 173f 02be aa40 1fbb 2c90 14bb

fc3.bias f4 [8]
-0.10426201 -0.1024742 -0.031809855 -0.14995015 -0.059398636 -0.05116648 -0.15922084 -0.19418797
00000000: 5287 d5bd fedd d1bd 0d4b 02bd 888c 19be
00000010: fc4b 73bd f193 51bd ca0a 23be 36d9 46be
