save/ppo/Ant-v2/critic_model.pkl (torch_old, 58599 bytes, 3 tensors)

fc1.weight f4 [128, 111]
0.251316 0.13744387 -0.034292948 0.012080535 -0.23356909 -0.17300233 0.20821819 -0.0703857
-0.21729387 -0.2500404 -0.21360615 -0.16720639 0.25689027 -0.30886322 -0.6128555 0.24509874
-0.7759958 -0.33004567 0.22505346 -0.48694178 0.368417 -0.30653608 -0.32878894 -0.31977186
-0.29452562 -0.42888966 0.28639254 0.05159021 -0.09278502 0.058840252 0.026516043 0.0900329
0.06265011 -0.08648136 -0.09024674 -0.045780938 0.08334667 -0.015810028 0.04062011 -0.044108458
0.093133084 -0.040158726 0.07117971 0.0011239573 -0.050003298 0.048788123 -0.050383218 0.02791518
-0.027407624 -0.01040604 -0.09125092 -0.04525412 0.051504545 -0.023071878 0.09454084 0.0760834
-0.004444301 -0.063354686 0.057800137 0.029457793 -0.06135545 0.061652042 0.057623558 0.08418035
-0.053205967 -0.015623711 -0.001838699 0.013863161 -0.07203334 -0.06735437 0.051634632 -0.022256993
0.046363838 0.0054111406 0.031165116 0.02087091 0.034511335 0.04705078 -0.087902665 0.047776006
-0.0667375 -0.071614824 0.005772248 -0.016174331 0.055746324 -0.054969124 -0.08437843 0.069076754
-0.014074288 0.05338607 0.030513965 -0.07117502 0.01906842 0.022798449 -0.063551694 -0.045034915
0.032363974 0.017001562 -0.04037458 -0.028732523 0.08693174 -0.017561443 0.05351273 0.04109884
-0.06135425 -0.0807192 0.0911086 0.0049561933 0.0650608 0.019669533 0.030527078 0.47635388
0.36326072 -0.30652156 -0.32543436 -0.032000203 0.18516558 0.501651 -0.5299448 -0.52416474
-0.2107166 -0.44109237 -0.31766006 0.3897398 -0.17377281 0.24765995 0.28471488 -0.030572133
-0.1607258 0.06223557 -0.11954515 0.44838312 0.4189827 -0.23770829 -0.091242485 0.27510813
0.6102148 0.37468708 -0.06490533 -0.07970635 -0.043492373 -0.011052556 -0.05817885 0.034725286
0.029375285 -0.021492288 0.036480017 0.030675344 0.05794979 0.063920446 -0.032143496 0.092735164
-0.010972999 -0.0032609254 -0.089589134 -0.061089348 -0.05545014 -0.040597662 0.06748224 -0.031016685
-0.07092879 0.03651885 0.030389152 0.061476074 -0.049116284 0.020579167 -0.034554157 -0.021325178
-0.07564014 -0.043258917 -0.029068694 0.040589355 0.017340116 0.023445763 0.09473596 0.09250755
0.064737044 0.0030224547 -0.06566194 0.074177615 -0.023734972 -0.007673502 -0.08176986 -0.018748581
-0.061219536 0.087218694 -0.0820567 -0.07398523 -0.003222987 -0.05132244 0.03396199 -0.03653552
-0.044580773 0.00537581 0.06870935 -0.06676602 0.04457306 0.06097784 0.09284637 -0.0664345
0.022987649 -0.07018329 0.081034385 -0.036818437 0.057172798 0.0028257817 -0.0073922947 -0.0030285567
0.016135164 0.044742934 0.015222587 0.028954528 -0.08537911 0.06914971 0.082753666 0.078457944
0.07016391 -0.06849422 -0.03518529 0.08368967 -0.07229343 0.08610963 0.31267586 0.24625766
-0.27705145 -0.20434389 0.090090804 0.10229494 0.44382057 0.2155471 -0.40044183 -0.020470845
-0.29434037 -0.119040914 0.36335528 -1.342551 0.24065596 0.14212525 0.20306033 -0.17018095
-0.5506553 0.6142073 0.34877533 -0.28130332 -0.35495222 0.3887957 -0.5451091 -0.5066349
-0.88775223 0.078166045 0.083668835 -0.032239735 0.0042570084 0.042330347 0.011372559 -0.047529332
00000000: 7eac 803e 16be 0c3e c376 0cbd 70ed 453c
00000010: bc2c 6fbe 8627 31be 2637 553e 6126 90bd
00000020: 4982 5ebe 4c05 80be 92bb 5abe 2738 2bbe
00000030: 1f87 833e 5223 9ebe 19e4 1cbf 2afb 7a3e
00000040: a9a7 46bf bffb a8be 6a74 663e 6f50 f9be
00000050: 27a1 bc3e 4cf2 9cbe 0657 a8be 23b9 a3be
00000060: 10cc 96be 6d97 dbbe 0ba2 923e 4250 533d
00000070: 1306 bebd 7a02 713d 2c38 d93c 2b63 b83d
00000080: b34e 803d 241d b1bd 48d3 b8bd cb84 3bbd
00000090: a9b1 aa3d 0884 81bc 4661 263d 12ab 34bd
000000a0: 8fbc be3d 7a7d 24bd abc6 913d c051 933a
000000b0: 42d0 4cbd 0ed6 473d a25e 4ebd 60ae e43c
000000c0: f485 e0bc 187e 2abc c3e1 babd 625c 39bd
000000d0: 6ef6 523d 3c01 bdbc a19e c13d 9dd1 9b3d
000000e0: 80a1 91bb 1ac0 81bd d6bf 6c3d 7851 f13c
000000f0: da4f 7bbd da86 7c3d ae06 6c3d bf66 ac3d
00000100: 80ee 59bd 98fa 7fbc 8000 f1ba 5022 633c
00000110: 3786 93bd 17f1 89bd d67e 533d 4c54 b6bc
00000120: 02e8 3d3d f04f b13b fc4d ff3c 78f9 aa3c
00000130: c25b 0d3d 52b8 403d 5006 b4bd c6b0 433d
00000140: acad 88bd cbaa 92bd 2025 bd3b 0880 84bc
00000150: 4256 643d 4e27 61bd 99ce acbd 1d78 8d3d
00000160: d897 66bc 5aab 5a3d 6cf8 f93c 35c4 91bd
00000170: 6035 9c3c d0c3 ba3c 6427 82bd 8876 38bd
00000180: 1690 043d dc46 8b3c d15f 25bd 7860 ebbc
00000190: 4509 b23d 04dd 8fbc 2a30 5b3d 4257 283d
000001a0: 984e 7bbd 1c50 a5bd 2597 ba3d 9067 a23b
000001b0: 993e 853d 0022 a13c ec13 fa3c a8e4 f33e
000001c0: 4ffd b93e 65f0 9cbe 559f a6be a512 03bd
000001d0: 0c9c 3d3e 336c 003f 76aa 07bf a92f 06bf
000001e0: 18c6 57be dcd6 e1be 57a4 a2be fa8b c73e
000001f0: 80f1 31be 929a 7d3e 26c6 913e 6972 fabc
00000200: 4e95 24be baea 7e3d 16d4 f4bd 7992 e53e
00000210: e784 d63e cd69 73be 57dd babd f9da 8c3e
00000220: 0a37 1c3f fcd6 bf3e 16ed 84bd 153d a3bd
00000230: 0f25 32bd c815 35bc f24c 6ebd 1a3c 0e3d
00000240: 70a4 f03c 9810 b0bc 126c 153d dc4a fb3c
00000250: c25c 6d3d b9e8 823d e6a8 03bd efeb bd3d
00000260: 18c8 33bc 40b5 55bb 827a b7bd d338 7abd
00000270: b01f 63bd bc49 26bd 2134 8a3d b416 febc
00000280: 1d43 91bd ca94 153d acf2 f83c 56ce 7b3d
00000290: 282e 49bd a495 a83c a988 0dbd 24b2 aebc
000002a0: 38e9 9abd 4330 31bd 7821 eebc 0641 263d
000002b0: dc0c 8e3c 5411 c03c ed04 c23d 9974 bd3d
000002c0: db94 843d 6014 463b c479 86bd 6fea 973d
000002d0: d86f c2bc 0072 fbbb f576 a7bd a096 99bc
000002e0: 56c1 7abd b79f b23d 580d a8bd 9185 97bd
000002f0: c038 53bb 7b37 52bd ba1b 0b3d 45a6 15bd
00000300: 549a 36bd 9027 b03b 7db7 8c3d a0bc 88bd
00000310: 3e92 363d e6c3 793d 3d26 be3d d00e 88bd
00000320: 9850 bc3c 42bc 8fbd 5bf5 a53d eece 16bd
00000330: 062e 6a3d c030 393b 103b f2bb c07a 46bb
00000340: e42d 843c 5e44 373d 2868 793c 0c32 ed3c
00000350: 3edb aebd 5d9e 8d3d c17a a93d 8fae a03d
00000360: 19b2 8f3d b346 8cbd 731e 10bd 7d65 ab3d
00000370: 940e 94bd 3f5a b03d 0d17 a03e f82a 7c3e
00000380: b0d9 8dbe 863f 51be 8781 b83d 0280 d13d
00000390: 733c e33e 61b8 5c3e b606 cdbe 79b2 a7bc
000003a0: c8b3 96be b9cb f3bd b409 ba3e b6d8 abbf
000003b0: 846e 763e 4889 113e 0cef 4f3e ea43 2ebe
000003c0: bff7 0cbf b13c 1d3f ae92 b23e fd06 90be
000003d0: 4cbc b5be 3b10 c73e 458c 0bbf d3b2 01bf
000003e0: bb43 63bf 8515 a03d 915a ab3d d00d 04bd
000003f0: 607e 8b3b 9662 2d3d f853 3a3c 1eae 42bd

fc1.bias f4 [128]
0.14830771 0.4528524 0.46919477 0.30090097 0.24783331 0.3115718 0.33830184 0.10788365
0.1724656 0.3038933 0.34925142 0.23374712 0.22343147 0.23642717 0.33989054 0.16630259
0.28689212 0.10914025 0.106022544 0.24842593 0.36373863 0.41413668 0.26842484 0.16121626
0.051155645 0.5710023 0.4264873 0.17318052 0.75392926 0.10457466 0.27962682 0.32407108
0.3040984 0.23396727 0.05167787 0.27721435 0.31209487 0.16249263 -0.15824434 0.20627014
0.7705676 0.19041477 0.32683602 0.24774638 0.29751617 0.41529727 0.25683215 0.21450435
0.14071754 0.285673 0.31748497 0.26047146 0.08276138 0.67878467 0.47252733 0.1116239
0.3401296 0.037056707 0.23564751 0.4677132 0.10626584 0.15399848 0.28658608 0.0032301375
0.07049679 0.07249815 0.07033303 0.34296164 0.36369076 0.1523653 0.04664299 0.16371657
0.113102965 0.42084518 0.26710168 0.17160231 0.14140835 0.15474182 0.27435997 0.059348732
0.3026346 0.017651167 0.17690854 0.168407 0.096795365 0.13996623 0.30060628 0.4566075
0.046769947 0.08537784 0.3571157 0.21477778 0.18261626 0.36091962 0.35960963 0.4047971
0.21206921 0.14313363 0.2939249 0.13112323 0.31349108 0.3219456 0.48044786 0.1514628
0.22893746 0.14058588 0.19252744 0.09921732 -0.022480106 0.089516334 0.25286838 0.21485174
0.4603947 -0.02897922 0.15365146 0.3229991 0.30174476 0.14520895 0.3397918 0.12821138
0.28187272 0.21341273 0.14625393 0.04304399 0.43609226 0.2358676 0.18825895 0.24034426
00000000: fadd 173e 45dc e73e 4c3a f03e b10f 9a3e
00000010: 04c8 7d3e 5786 9f3e e635 ad3e 1af2 dc3d
00000020: d29a 303e e797 9b3e 15d1 b23e 685b 6f3e
00000030: 38cb 643e f719 723e 2206 ae3e 3a4b 2a3e
00000040: 86e3 923e ec84 df3d 5922 d93d 5e63 7e3e
00000050: f33b ba3e b909 d43e fb6e 893e e015 253e
00000060: 9588 513d 352d 123f 8b5c da3e 3c56 313e
00000070: 8201 413f 3d2b d63d 3f2b 8f3e a5ec a53e
00000080: c9b2 9b3e 1e95 6f3e 2dac 533d 0aef 8d3e
00000090: e6ca 9f3e 7864 263e ce0a 22be 7b38 533e
000000a0: eb43 453f 17fc 423e 0d57 a73e 3ab1 7d3e
000000b0: 0a54 983e d8a1 d43e 817f 833e 07a7 5b3e
000000c0: 4218 103e bb43 923e 648d a23e 845c 853e
000000d0: cc7e a93d d5c4 2d3f 1aef f13e 129b e43d
000000e0: 7825 ae3e c6c8 173d 954d 713e 1b78 ef3e
000000f0: e8a1 d93d c7b1 1d3e 69bb 923e b7b0 533b
00000100: 9f60 903d e979 943d c30a 903d ab98 af3e
00000110: ad35 ba3e a605 1c3e b80c 3f3d 51a5 273e
00000120: 87a2 e73d 0579 d73e 8dc1 883e 84b8 2f3e
00000130: 5acd 103e a474 1e3e e978 8c3e a817 733d
00000140: ecf2 9a3e 2e99 903c 8327 353e e272 2c3e
00000150: a63c c63d 4f53 0f3e 11e9 993e 75c8 e93e
00000160: d891 3f3d 94da ae3d ded7 b63e b5ee 5b3e
00000170: c2ff 3a3e 75ca b83e c11e b83e 9141 cf3e
00000180: ac28 593e 9f91 123e 537d 963e 2b45 063e
00000190: e781 a03e 0ed6 a43e 43fd f53e 1019 1b3e
000001a0: 956e 6a3e bff5 0f3e ea25 453e 7332 cb3d
000001b0: 3328 b8bc 5754 b73d f777 813e 1802 5c3e
000001c0: dbb8 eb3e d465 edbc cf56 1d3e 2360 a53e
000001d0: 4a7e 9a3e a8b1 143e 31f9 ad3e d849 033e
000001e0: 9f51 903e de88 5a3e 97c3 153e e54e 303d
000001f0: 7c47 df3e 4787 713e f4c6 403e ce1c 763e

fc2.weight f4 [1, 128]
-0.109005876 0.2249 0.21626805 -0.10885233 0.39934868 0.296762 0.33055863 -0.19976518
-0.17851835 0.38191032 -0.05871096 -0.1549496 -0.14104839 -0.11475339 0.27003977 -0.11356886
-0.09915138 -0.2583954 -0.24677229 0.40117478 0.3288485 0.21364306 0.36628446 -0.1110007
-0.20842016 0.21701314 -0.045973748 -0.15619738 -0.0155134965 -0.29041743 0.34409055 0.2866745
0.33707166 -0.204589 -0.32918388 0.349635 -0.080719195 -0.1550421 0.0027210382 -0.26708168
-0.013240707 -0.12135212 0.29278666 0.47831693 0.3261108 -0.039870437 -0.12333893 -0.112973794
-0.11014257 0.3410096 0.28915817 -0.088062525 -0.31094536 -0.025200771 0.29138747 -0.16416681
0.24197696 -0.30280602 -0.11366631 0.22806422 -0.23969774 0.28916922 0.31984985 -0.40681067
-0.24961455 -0.20581573 -0.2198074 0.32037896 0.2268091 -0.14306611 -0.23417999 -0.14829774
-0.27891284 0.29263613 0.3415253 -0.12258383 -0.38370305 -0.14993052 0.28980666 -0.3441102
0.30862206 -0.27855474 -0.21467313 -0.15186435 -0.21273428 -0.1694388 0.4005909 0.27234453
-0.19564891 -0.22062404 -0.06252934 -0.103293926 -0.18132356 0.27798593 0.29419312 0.24956696
-0.07493044 -0.27549216 -0.099449016 -0.20572315 0.3316698 -0.0546774 0.27118358 -0.20164788
-0.14515446 -0.20349452 -0.19083995 -0.18690808 -0.2822127 -0.25310674 0.31237182 -0.10517527
-0.06857144 -0.3157684 -0.1870144 0.3496424 0.29132596 -0.1426623 -0.09271927 -0.15276209
0.33859602 -0.121535696 0.33657733 -0.23117779 0.25534642 0.24155103 -0.1878219 -0.14475906
00000000: 793e dfbd 304c 663e 5f75 5d3e f8ed debd
00000010: 6e77 cc3e 30f1 973e fb3e a93e 3e8f 4cbe
00000020: 84cd 36be c089 c33e e77a 70bd 1cab 1ebe
00000030: fd6e 10be d303 ebbd a742 8a3e ca96 e8bd
00000040: e10f cbbd 674c 84be e0b1 7cbe c866 cd3e
00000050: d55e a83e 3fc5 5a3e a389 bb3e 5654 e3bd
00000060: 186c 55be b138 5e3e f84e 3cbd 35f2 1fbe
00000070: 522c 7ebc 98b1 94be a32c b03e 00c7 923e
00000080: a894 ac3e c77f 51be ca8a a8be 5c03 b33e
00000090: 1b50 a5bd 5bc3 1ebe 7253 323b eebe 88be
000000a0: 8def 58bc 7687 f8bd 22e8 953e f5e5 f43e
000000b0: fff7 a63e 2f4f 23bd 1f99 fcbd ce5e e7bd
000000c0: 6e92 e1bd cf98 ae3e 8a0c 943e 205a b4bd
000000d0: 3b34 9fbe d971 cebc bd30 953e 581b 28be
000000e0: cfc8 773e 6409 9bbe e2c9 e8bd ab89 693e
000000f0: 5373 75be fd0d 943e 5cc3 a33e 7d49 d0be
00000100: f59a 7fbe 5cc1 52be 3115 61be b608 a43e
00000110: a540 683e ec7f 12be e1cc 6fbe 5ddb 17be
00000120: aacd 8ebe 67d4 953e 67dc ae3e 3b0d fbbd
00000130: ba74 c4be 6387 19be 8a61 943e 362f b0be
00000140: b603 9e3e ba9e 8ebe 46d3 5bbe 5482 1bbe
00000150: 04d7 59be 5d81 2dbe 401a cd3e be70 8b3e
00000160: 3058 48be 45eb 61be 620f 80bd c48b d3bd
00000170: e2ac 39be 2c54 8e3e 7ba0 963e 7b8e 7f3e
00000180: 2175 99bd 4f0d 8dbe edab cbbd 17a9 52be
00000190: a0d0 a93e 69f5 5fbd 93d8 8a3e c87c 4ebe
000001a0: 5fa3 14be de60 50be 8c6b 43be d564 3fbe
000001b0: 2f7e 90be 3597 81be 33ef 9f3e 2266 d7bd
000001c0: 2f6f 8cbd 65ac a1be b480 3fbe 5404 b33e
000001d0: ad28 953e 1116 12be 9ae3 bdbd aa6d 1cbe
000001e0: 755c ad3e b5e7 f8bd dd53 ac3e dfb9 6cbe
000001f0: c4bc 823e 2759 773e 6254 40be b83b 14be
