save/ppo/Ant-v2/critic_model.pkl (torch_old, 58599 bytes, 3 tensors)

fc1.weight f4 [128, 111]
000000 2b 8d aa 3e e6 b1 f6 3d 6d c6 80 3e 2e df 31 3e
       0.33310828 0.1204565 0.25151387 0.17370293
000010 05 4b 27 3d ea af b0 3d 70 40 a7 3e d3 0f 44 3e
       0.04084303 0.08627303 0.3266635 0.19146661
000020 ac 84 b1 be 92 4b 06 be ae 40 c4 be 1c a8 ac bd
       -0.34671533 -0.13114765 -0.38330597 -0.08430502
000030 44 fa 03 3f 45 50 86 be b3 7c 6a 3e d8 c4 d9 3e
       0.5155375 -0.26233116 0.22899131 0.42532992
000040 0b 29 82 be 68 24 f0 3d 8b 23 ec 3e 22 80 68 be
       -0.25421938 0.11725694 0.46120867 -0.22705129
000050 14 4e 5d 3d 36 9a f2 be 5e 8a 26 bf 87 7c 15 bf
       0.05402954 -0.4738328 -0.6505488 -0.5839314
000060 3f 2c ce be f9 e1 06 3f 78 a0 b4 3e 42 50 53 3d
       -0.40268132 0.52688557 0.35278678 0.05159021
000070 13 06 be bd 7a 02 71 3d 2c 38 d9 3c 2b 63 b8 3d
       -0.09278502 0.058840252 0.026516043 0.0900329
000080 b3 4e 80 3d 24 1d b1 bd 48 d3 b8 bd cb 84 3b bd
       0.06265011 -0.08648136 -0.09024674 -0.045780938
000090 a9 b1 aa 3d 08 84 81 bc 46 61 26 3d 12 ab 34 bd
       0.08334667 -0.015810028 0.04062011 -0.044108458
0000a0 8f bc be 3d 7a 7d 24 bd ab c6 91 3d c0 51 93 3a
       0.093133084 -0.040158726 0.07117971 0.0011239573
0000b0 42 d0 4c bd 0e d6 47 3d a2 5e 4e bd 60 ae e4 3c
       -0.050003298 0.048788123 -0.050383218 0.02791518
0000c0 f4 85 e0 bc 18 7e 2a bc c3 e1 ba bd 62 5c 39 bd
       -0.027407624 -0.01040604 -0.09125092 -0.04525412
0000d0 6e f6 52 3d 3c 01 bd bc a1 9e c1 3d 9d d1 9b 3d
       0.051504545 -0.023071878 0.09454084 0.0760834
0000e0 80 a1 91 bb 1a c0 81 bd d6 bf 6c 3d 78 51 f1 3c
       -0.004444301 -0.063354686 0.057800137 0.029457793
0000f0 da 4f 7b bd da 86 7c 3d ae 06 6c 3d bf 66 ac 3d
       -0.06135545 0.061652042 0.057623558 0.08418035
000100 80 ee 59 bd 98 fa 7f bc 80 00 f1 ba 50 22 63 3c
       -0.053205967 -0.015623711 -0.001838699 0.013863161
000110 37 86 93 bd 17 f1 89 bd d6 7e 53 3d 4c 54 b6 bc
       -0.07203334 -0.06735437 0.051634632 -0.022256993
000120 02 e8 3d 3d f0 4f b1 3b fc 4d ff 3c 78 f9 aa 3c
       0.046363838 0.0054111406 0.031165116 0.02087091
000130 c2 5b 0d 3d 52 b8 40 3d 50 06 b4 bd c6 b0 43 3d
       0.034511335 0.04705078 -0.087902665 0.047776006
000140 ac ad 88 bd cb aa 92 bd 20 25 bd 3b 08 80 84 bc
       -0.0667375 -0.071614824 0.005772248 -0.016174331
000150 42 56 64 3d 4e 27 61 bd 99 ce ac bd 1d 78 8d 3d
       0.055746324 -0.054969124 -0.08437843 0.069076754
000160 d8 97 66 bc 5a ab 5a 3d 6c f8 f9 3c 35 c4 91 bd
       -0.014074288 0.05338607 0.030513965 -0.07117502
000170 60 35 9c 3c d0 c3 ba 3c 64 27 82 bd 88 76 38 bd
       0.01906842 0.022798449 -0.063551694 -0.045034915
000180 16 90 04 3d dc 46 8b 3c d1 5f 25 bd 78 60 eb bc
       0.032363974 0.017001562 -0.04037458 -0.028732523
000190 45 09 b2 3d 04 dd 8f bc 2a 30 5b 3d 42 57 28 3d
       0.08693174 -0.017561443 0.05351273 0.04109884
0001a0 98 4e 7b bd 1c 50 a5 bd 25 97 ba 3d 90 67 a2 3b
       -0.06135425 -0.0807192 0.0911086 0.0049561933
0001b0 99 3e 85 3d 00 22 a1 3c ec 13 fa 3c 42 70 4f 3e
       0.0650608 0.019669533 0.030527078 0.20257667
0001c0 47 ae 01 3d e8 56 83 bf bb 3c fe 3e 23 0c 00 3f
       0.031660344 -1.0260897 0.4965571 0.5001852
0001d0 27 9e 45 3e ec 21 9d 3e ce 61 6a 3e 88 9e c0 be
       0.19298612 0.30689943 0.22888872 -0.3762095
0001e0 97 23 4a bd 37 64 75 be b3 9e 59 be 83 f7 70 3e
       -0.049350347 -0.2396401 -0.21251945 0.23531918
0001f0 b2 ae 80 be e5 15 16 bf 35 16 bb bd 63 7f 5c 3e
       -0.25133282 -0.5862716 -0.09135095 0.21532969
000200 e1 29 a1 be c0 bb 82 3d 6e 8d 2d 3e 47 7d 9f 3e
       -0.31477264 0.06383467 0.16948482 0.31150267
000210 5a f6 75 be 4c f8 45 3e 5e b0 13 3f 1f 4b 9a 3e
       -0.24019757 0.19332999 0.5769099 0.30135438
000220 8c 72 19 3e b6 5e 6b 3e 16 ed 84 bd 15 3d a3 bd
       0.14985102 0.22985348 -0.06490533 -0.07970635
000230 0f 25 32 bd c8 15 35 bc f2 4c 6e bd 1a 3c 0e 3d
       -0.043492373 -0.011052556 -0.05817885 0.034725286
000240 70 a4 f0 3c 98 10 b0 bc 12 6c 15 3d dc 4a fb 3c
       0.029375285 -0.021492288 0.036480017 0.030675344
000250 c2 5c 6d 3d b9 e8 82 3d e6 a8 03 bd ef eb bd 3d
       0.05794979 0.063920446 -0.032143496 0.092735164
000260 18 c8 33 bc 40 b5 55 bb 82 7a b7 bd d3 38 7a bd
       -0.010972999 -0.0032609254 -0.089589134 -0.061089348
000270 b0 1f 63 bd bc 49 26 bd 21 34 8a 3d b4 16 fe bc
       -0.05545014 -0.040597662 0.06748224 -0.031016685
000280 1d 43 91 bd ca 94 15 3d ac f2 f8 3c 56 ce 7b 3d
       -0.07092879 0.03651885 0.030389152 0.061476074
000290 28 2e 49 bd a4 95 a8 3c a9 88 0d bd 24 b2 ae bc
       -0.049116284 0.020579167 -0.034554157 -0.021325178
0002a0 38 e9 9a bd 43 30 31 bd 78 21 ee bc 06 41 26 3d
       -0.07564014 -0.043258917 -0.029068694 0.040589355
0002b0 dc 0c 8e 3c 54 11 c0 3c ed 04 c2 3d 99 74 bd 3d
       0.017340116 0.023445763 0.09473596 0.09250755
0002c0 db 94 84 3d 60 14 46 3b c4 79 86 bd 6f ea 97 3d
       0.064737044 0.0030224547 -0.06566194 0.074177615
0002d0 d8 6f c2 bc 00 72 fb bb f5 76 a7 bd a0 96 99 bc
       -0.023734972 -0.007673502 -0.08176986 -0.018748581
0002e0 56 c1 7a bd b7 9f b2 3d 58 0d a8 bd 91 85 97 bd
       -0.061219536 0.087218694 -0.0820567 -0.07398523
0002f0 c0 38 53 bb 7b 37 52 bd ba 1b 0b 3d 45 a6 15 bd
       -0.003222987 -0.05132244 0.03396199 -0.03653552
000300 54 9a 36 bd 90 27 b0 3b 7d b7 8c 3d a0 bc 88 bd
       -0.044580773 0.00537581 0.06870935 -0.06676602
000310 3e 92 36 3d e6 c3 79 3d 3d 26 be 3d d0 0e 88 bd
       0.04457306 0.06097784 0.09284637 -0.0664345
000320 98 50 bc 3c 42 bc 8f bd 5b f5 a5 3d ee ce 16 bd
       0.022987649 -0.07018329 0.081034385 -0.036818437
000330 06 2e 6a 3d c0 30 39 3b 10 3b f2 bb c0 7a 46 bb
       0.057172798 0.0028257817 -0.0073922947 -0.0030285567
000340 e4 2d 84 3c 5e 44 37 3d 28 68 79 3c 0c 32 ed 3c
       0.016135164 0.044742934 0.015222587 0.028954528
000350 3e db ae bd 5d 9e 8d 3d c1 7a a9 3d 8f ae a0 3d
       -0.08537911 0.06914971 0.082753666 0.078457944
000360 19 b2 8f 3d b3 46 8c bd 73 1e 10 bd 7d 65 ab 3d
       0.07016391 -0.06849422 -0.03518529 0.08368967
000370 94 0e 94 bd 3f 5a b0 3d fa 9f 8a 3e f8 5d 89 3d
       -0.07229343 0.08610963 0.27075177 0.06707376
000380 07 94 1c be 5f 72 ac bd d5 1b 05 be 3f bc 66 be
       -0.15290843 -0.08420252 -0.12998898 -0.22532748
000390 8b b7 01 3f c0 76 35 3e 64 3e d7 be d1 aa 4f bd
       0.5067069 0.17721081 -0.42039788 -0.050700013
0003a0 29 1d 9f be 87 52 33 3d 7d a2 a1 3e 5c 61 18 3a
       -0.31076935 0.043779876 0.3156928 0.00058128475
0003b0 02 1b 72 be 76 6b 76 3e ca e8 40 bc 7f 86 06 bf
       -0.23643115 0.2406443 -0.011774251 -0.52548975
0003c0 04 af 4e 3d fb a9 5b bd 61 31 d5 3d 20 0e 49 be
       0.050459877 -0.053628903 0.10409809 -0.19634295
0003d0 fa 85 ca bd 2c b7 39 be 5b 4e 33 be 70 b8 96 bd
       -0.09888835 -0.18136281 -0.17510359 -0.073593974
0003e0 8f 63 81 be 85 15 a0 3d 91 5a ab 3d d0 0d 04 bd
       -0.2527127 0.078166045 0.083668835 -0.032239735
0003f0 60 7e 8b 3b 96 62 2d 3d f8 53 3a 3c 1e ae 42 bd
       0.0042570084 0.042330347 0.011372559 -0.047529332

fc1.bias f4 [128]
000000 71 a4 cb 3e a0 1c cb 3e 35 37 28 3f ad 3d f9 3d
       0.39773896 0.39670277 0.6570924 0.12169967
000010 56 14 ec 3d 37 23 ca 3e 04 e9 fc 3d e3 b8 ac 3e
       0.11527316 0.39479992 0.12349132 0.33734807
000020 49 b4 71 3e c3 a0 a1 3e 3c 12 2a 3f cd 25 8a 3e
       0.2360393 0.31567964 0.66434073 0.26981965
000030 02 25 c8 3d 37 a7 e8 3d de b4 0d 3f 82 c5 25 3f
       0.09772684 0.11360019 0.55354106 0.647545
000040 f9 b4 18 3d fd 01 1c 3f ba f5 bd 3e d2 03 ff 3d
       0.037281964 0.60940534 0.37101537 0.124519005
000050 e5 ec fd 3c f3 0b f1 3e 34 4e 50 3e 2f df 3c 3e
       0.03099675 0.4707943 0.20342332 0.18444513
000060 9a e8 1d 3f e4 ba bf 3e 57 fd db 3d 11 00 ae 3e
       0.61683047 0.37447274 0.1074168 0.33984426
000070 8a b1 51 bd ad 5c 34 3f 03 9a 6b 3e 85 ec 06 3f
       -0.051194705 0.7045391 0.2300797 0.5270465
000080 19 3b 0a bd 84 a7 84 3e 48 a3 0c 3f ff 61 dc 3e
       -0.033747766 0.25909054 0.5493665 0.43043515
000090 19 23 a6 3d 81 a7 be 3e 0e dd a6 bd 78 b2 bf 3e
       0.08112163 0.3723717 -0.081476316 0.37440848
0000a0 ef 24 b8 3d 11 eb 16 3f b6 23 85 3e 4e 5e 8b 3c
       0.089914195 0.5895243 0.26003808 0.017012741
0000b0 92 fd a6 3e 7a d5 cf 3e a4 66 49 3f 08 44 b5 3d
       0.32615334 0.40592557 0.7867224 0.088508666
0000c0 0e d6 ae 3e d8 8e 1c 3d d2 63 f2 3e c7 8c c3 3e
       0.34147686 0.038222164 0.47341782 0.38193342
0000d0 d4 83 97 3e 6f 63 2d 3e 7e e6 1c 3f b2 ec bf bd
       0.29592764 0.16932462 0.61289203 -0.09371318
0000e0 b9 68 0e 3f 46 66 66 3d 4d ed 04 3e 97 b9 76 3e
       0.55628544 0.05624988 0.12981148 0.24094234
0000f0 ff af 3d 3d 84 be 34 3c 8d b9 33 3e 93 e5 38 be
       0.04631042 0.011031751 0.17551251 -0.18056326
000100 2e 1e 9a 3d 67 1e e0 3d 2f d7 cb 3d 4b 88 8a 3e
       0.075252876 0.10943299 0.099531524 0.27057108
000110 50 d5 96 3e a5 88 19 3f a4 94 74 3e 6a b4 0f 3e
       0.2945962 0.5997413 0.23884827 0.14033666
000120 2a 1c 11 3f 60 76 1b 3e bf 71 41 3e 32 b1 62 3c
       0.566836 0.15181875 0.18891047 0.013836192
000130 5b a6 61 3d bf db 2f 3e d8 8d 8e 3e d8 b8 41 3e
       0.05509029 0.1717367 0.27842593 0.18918169
000140 12 4c 0b 3f be e3 8d 3e bd c9 55 3e f8 9f 04 3f
       0.5441295 0.27712816 0.20877738 0.5180659
000150 66 a4 24 3e 27 af 0b 3f 87 77 4e 3e 30 57 14 3f
       0.16078338 0.54564136 0.20162784 0.5794554
000160 4b 21 ad bd 49 80 2b 3e 33 bb 0d 3f 9d 09 80 3c
       -0.08453616 0.16748156 0.5536377 0.015629584
000170 76 f9 8e 3e 15 2c ba 3b de 0b bf 3e 82 68 32 3f
       0.279247 0.0056815245 0.3731374 0.69690716
000180 47 ac 21 3e bf 48 be 3d e4 fc ca 3e 0b 85 dd 3d
       0.15788375 0.09291219 0.39646065 0.108163916
000190 37 b7 85 bd 6f aa 2d 3f 87 7c fb 3e 54 06 0d 3f
       -0.06529086 0.67838186 0.49118444 0.5508778
0001a0 b6 d9 e5 3e 35 34 05 be ec e2 ea bc 6c 96 26 3e
       0.44892663 -0.13008197 -0.028672658 0.16268319
0001b0 fd 79 a9 3e 62 1d de 3d da e1 07 be d8 3c 6b 3d
       0.33100882 0.10845448 -0.1326975 0.057431072
0001c0 0b 81 17 3e 4d 8f 00 3f 56 a6 cb 3d 32 1c 80 3e
       0.1479532 0.5021866 0.099438354 0.2502151
0001d0 0f 27 39 3c f6 dd 84 3e 2c 6e 10 3f 52 19 15 3e
       0.011300816 0.25950593 0.5641811 0.1456044
0001e0 a0 cd 3b 3e 68 d5 12 3f d0 fe 10 3e 84 37 db 3e
       0.18340158 0.5735688 0.14159703 0.42815793
0001f0 1d 0d a2 bd 50 0b 90 bc 02 fe 3b 3e 3a 5c 00 bd
       -0.079126574 -0.01758352 0.18358615 -0.031337954

fc2.weight f4 [1, 128]
000000 be 0d ca bc e2 11 a2 3d 09 87 d1 3d 53 f1 12 bd
       -0.024664756 0.07913567 0.10230834 -0.035874676
000010 ae 69 16 3e 40 7f 97 3d 6f 88 b3 3e 55 5d 14 3d
       0.14688751 0.07397318 0.35065028 0.03622182
000020 1e 92 cb bd 15 37 da 3d 3c 22 fe 3d 7a 66 b2 bc
       -0.09939979 0.10655037 0.124088734 -0.02177738
000030 7b f2 b7 bd 18 ab 3c be f8 55 3b 3e e0 a9 21 3e
       -0.08981796 -0.18424642 0.18294513 0.15787458
000040 4f 3b 1a be 4c 6b d4 3d 12 1e db 3c 4e e0 06 3e
       -0.15061687 0.10372028 0.026747737 0.13171503
000050 d6 3a 40 bd ea 28 19 3e 95 50 b0 3e d3 ef ba bd
       -0.04693111 0.14957014 0.3443648 -0.09127774
000060 92 14 18 3e 01 8f c1 3d 14 f8 dd bd 82 fb 37 3d
       0.14851597 0.09451104 -0.10838333 0.04491759
000070 8f 1c 13 bd c8 fa 28 3e 3a a3 19 3d d2 3c d7 3d
       -0.035915907 0.16501915 0.03750918 0.105096474
000080 4c 26 77 be a2 a4 04 be b5 35 d8 3d b7 0e ce 3d
       -0.24135703 -0.12953427 0.10557119 0.100614004
000090 0c 20 ae bd 47 ee 93 bc 21 cd 2a be 88 ff 77 bd
       -0.08502206 -0.018057955 -0.16679813 -0.060546428
0000a0 d2 ef 1f 3d c2 00 cc 3d 44 80 73 3d 0a 66 91 3e
       0.03904707 0.09961082 0.059448496 0.28398162
0000b0 97 15 1b 3e c2 d2 40 3d 95 5f 42 3e 3f b2 52 be
       0.15144955 0.047075994 0.18981774 -0.20575808
0000c0 84 fa ea 3d 01 4a 90 be f8 05 81 3d b5 a7 04 3e
       0.11473563 -0.2818146 0.062999666 0.129546
0000d0 55 51 42 3e 67 dc 5b bd 08 71 25 3e 12 49 45 bd
       0.18976338 -0.05367699 0.16156399 -0.04816539
0000e0 72 bf 0b 3e 41 c2 03 be db 48 2e bd 30 55 07 3e
       0.1364725 -0.1286707 -0.04254995 0.1321609
0000f0 8f 09 09 be 57 7f 20 be 09 b0 ef be b2 06 88 be
       -0.13382553 -0.15673576 -0.46813992 -0.26567608
000100 6e 0d 87 bd e8 c6 86 be f2 77 0a be cb 22 4d 3e
       -0.065943584 -0.26323628 -0.13522318 0.20032804
000110 3d 4c f7 3d 6d 45 1a 3e 0d c7 e4 bc 79 25 9c bd
       0.12075088 0.15065546 -0.027926946 -0.07624335
000120 c5 d6 ff 3d 98 1a e1 bd 46 b9 28 3e 25 0f 39 be
       0.12492136 -0.109914005 0.16476926 -0.18072183
000130 f6 66 a2 be 73 12 33 bd 91 fa 54 3d 5f d9 de bc
       -0.31719178 -0.043718766 0.05199677 -0.02720326
000140 20 84 df 3d a6 a5 3c 3e 62 30 11 be 91 b1 64 3e
       0.10913873 0.18422565 -0.14178613 0.22333361
000150 c6 88 a9 bd 83 1e a1 3d ee e6 88 3e 70 de 19 3e
       -0.082780406 0.07867148 0.26738685 0.1502626
000160 82 3d 89 bd 77 2c 17 bd 9d 8a 20 3e 7d fe 0f bd
       -0.06701185 -0.03690764 0.15677877 -0.03515481
000170 0c 78 25 bd a3 b8 3d bd a8 e9 47 3e db 82 c5 3d
       -0.04039769 -0.04631866 0.19522727 0.09644099
000180 0c 20 9a bd f7 95 a8 bd 64 71 94 bc 54 1f 13 be
       -0.07525644 -0.082317285 -0.018120475 -0.1436742
000190 4d dd 16 be fb 9b 8b 3d 94 f9 5f 3e ce 60 04 3e
       -0.14732857 0.0681686 0.2187255 0.12927553
0001a0 ad 41 9c 3d b7 b6 36 be 3f e7 be bd 33 4c a3 bd
       0.07629714 -0.17843138 -0.093214504 -0.07973518
0001b0 1a 11 f4 3d 28 d2 84 be dc 7a b1 3b 57 9b 08 3b
       0.11917324 -0.25941586 0.0054162573 0.0020844543
0001c0 17 b0 c2 bd ef 1f d7 3d 8b 69 67 be 44 00 bf 3d
       -0.09506243 0.10504138 -0.22598855 0.093262225
0001d0 69 dd 07 be ec b3 a8 3d 41 76 11 3e 5b 82 84 bd
       -0.13268055 0.082374424 0.14205267 -0.06470176
0001e0 61 dc 23 3e 09 a7 11 3e 52 62 17 bd a7 c7 18 3e
       0.16002037 0.14223875 -0.036959 0.14919911
0001f0 0a 90 30 be a2 d9 83 be 93 27 d3 bd 30 d9 90 be
       -0.17242447 -0.25751978 -0.103102826 -0.282907
