save/ppo/InvertedPendulum-v2/actor_old_model.pkl (torch_old, 2753 bytes, 4 tensors)

fc1.weight f4 [64, 4]
000000 54 d4 07 3f ce 3d 81 be 61 dd 5a 3e b3 d1 16 bf
       0.5305836 -0.25242466 0.21373512 -0.58913726
000010 5d a1 9b 3e 4b 1c 95 3f e7 9c 25 3f 0a 29 6d 3e
       0.30396548 1.1649259 0.6469254 0.23160186
000020 66 a1 ce 3e 28 56 f5 3f db 83 dc 3e 36 2c 97 3e
       0.40357512 1.9166918 0.43069348 0.29525918
000030 56 b6 f6 3e bf 5d b9 3f f2 1a fa 3e 7d 1d 33 be
       0.48185986 1.4481734 0.48848683 -0.17491718
000040 c5 c6 55 be b0 2f 99 bf ca 39 25 be 3c 48 a6 be
       -0.20876606 -1.1967678 -0.16135326 -0.32476985
000050 83 08 3e bf 1e b9 30 bf e7 16 58 bf 8e 81 40 3f
       -0.7423174 -0.69032466 -0.84409946 0.75197685
000060 d8 d9 43 bf e1 a5 92 be 74 27 76 be 64 54 79 3e
       -0.7650428 -0.2864218 -0.24038488 0.24348599
000070 86 11 ae be 8c 16 41 3f 47 9f 00 3f f0 0d 07 bf
       -0.33997744 0.7542503 0.5024304 -0.5275564
000080 11 d8 31 3f 33 9b 6c bf 49 b2 5c be e8 82 17 bf
       0.69470316 -0.92424315 -0.21552385 -0.5918412
000090 45 2c 28 3f 4a 4a 2f bf 66 42 00 3f c1 99 a7 be
       0.6569255 -0.6847273 0.50101316 -0.32734492
0000a0 c5 dc e4 3d 8a cb 8c bf 74 30 f5 be d1 b4 a3 be
       0.11174921 -1.0999615 -0.4788853 -0.3197389
0000b0 3e 4c 91 bb 40 50 e2 3c c8 f4 3d be 8a 63 1f bc
       -0.0044341376 0.027626157 -0.18550408 -0.009728322
0000c0 1c 3c 13 3e 19 b1 19 3f 4c 31 15 bf 52 3b 24 3f
       0.14378399 0.60035855 -0.58278346 0.64153016
0000d0 09 a2 2c be 9e 91 84 3d 17 ec b4 3e 13 9a 31 bf
       -0.16858687 0.06473087 0.35336372 -0.69375724
0000e0 ad 7d 07 3f 7c 79 57 bf 48 f6 df 3e fd 71 70 be
       0.5292614 -0.84169745 0.43742585 -0.23480983
0000f0 5b e6 3e 3d 57 81 0f bf 2a 06 9f 3e fa cb 83 be
       0.046606403 -0.5605673 0.3105939 -0.2574156
000100 e8 55 ff ba 83 3d a2 3f e3 bd 0d 3f 21 7b 18 3f
       -0.0019480558 1.2675022 0.5536787 0.5956288
000110 d5 9f 3a be f6 2d 12 3f c2 80 fb 3e da ef fe be
       -0.18225034 0.5710138 0.49121672 -0.49792367
000120 f1 35 37 bf f0 86 30 bf 55 23 87 be ad 82 24 be
       -0.71566683 -0.689559 -0.26394144 -0.16065474
000130 2c c7 c6 be 09 ca ba 3e d5 e6 04 3e 14 3c 8f bc
       -0.3882383 0.36482266 0.1297868 -0.017484702
000140 25 de 16 3f 2a 3a 34 3f 50 5b 80 3e 8e c5 99 bd
       0.58932716 0.7040125 0.25069666 -0.07508384
000150 7e d6 02 3f 64 9e 64 3f 76 98 91 3e ac f9 f3 3e
       0.5110854 0.89304185 0.2843663 0.47651422
000160 04 cd 1a 3f ca 53 07 bf 88 36 fa 3e 55 aa 28 bf
       0.6046908 -0.52862227 0.4886973 -0.65884906
000170 71 56 16 3f 54 f0 a6 3f 30 28 5a 3d 5a c7 2e 3d
       0.5872565 1.3042092 0.053260982 0.042670585
000180 8b c0 e5 3e cb 0e 85 3f 65 a8 cf 3e 2a e6 dc 3e
       0.4487346 1.039514 0.40558162 0.4314435
000190 bc a6 a2 3e 3b f6 85 3f e5 1c 3e 3f 11 ec 56 3e
       0.31767833 1.0465769 0.7426284 0.2098849
0001a0 a6 28 d5 3d 61 ed 37 3d 26 d6 2d be 1a 9b a6 3d
       0.10408144 0.044904117 -0.16976222 0.08135052
0001b0 e5 43 07 bf 7a e8 27 3e 87 bc 04 3f 1a ea 95 3e
       -0.52837974 0.16397277 0.5185017 0.29280168
0001c0 ff 62 a6 3c 3c 6b a7 bf 76 cb 83 3e ec ba 53 bf
       0.020310877 -1.30796 0.25741166 -0.82707095
0001d0 e4 2f d1 bc cc fe 60 be 32 82 37 bc 4a 8f 6e 3c
       -0.025535531 -0.21972197 -0.011200475 0.01456053
0001e0 c0 44 e3 3e e8 17 81 3f a5 b8 83 3e dc dd 88 3e
       0.4438839 1.0085421 0.2572681 0.26731765
0001f0 07 ae 7a be 5c 01 87 be 8a f6 9d 3c 7d 51 91 be
       -0.24480449 -0.26368225 0.019282598 -0.28382483
000200 3c 90 42 be b3 b7 6e bf e0 06 08 bf e6 45 31 bf
       -0.19000334 -0.9324905 -0.5313549 -0.6924728
000210 b3 cc 3a bf aa 49 45 bf b4 47 1f 3b 88 25 fd be
       -0.72968596 -0.7706553 0.0024304213 -0.49442697
000220 e1 55 1c bf b1 2f 36 bf 93 af 27 be 8d 16 0f bf
       -0.6106854 -0.7116652 -0.1637557 -0.55893785
000230 9d 8c 5a bf b9 7a 87 bc 43 37 9a 3d a8 da 6e be
       -0.8537081 -0.01653801 0.075300716 -0.23325598
000240 e1 d3 9c be 46 a5 09 bd 6e 19 51 3e dc e5 4e 3e
       -0.306304 -0.033604883 0.20419857 0.20204872
000250 ac ad 16 3f be 13 9a 3f c6 fc 95 3e 3a 36 ad 3e
       0.5885875 1.2037275 0.29294413 0.33830434
000260 86 02 b1 3e de 1e e0 3e eb 26 80 3f fd 58 18 3e
       0.34572238 0.4377355 1.0011877 0.14877696
000270 6d c2 40 bf 2e d8 9a bf 07 29 2e be bb 2b 2b bf
       -0.7529667 -1.2097223 -0.17007838 -0.668636
000280 22 c9 81 3e 00 b6 aa 3d d7 5b 5d 3f 5c f2 0b bf
       0.25348765 0.08335495 0.8646826 -0.54666686
000290 af 8d d4 3e 38 8a 91 3f 77 27 61 be 0e 43 8c 3e
       0.41514346 1.1370306 -0.21987711 0.2739491
0002a0 d4 7f e0 3e 44 1d 60 3f 97 b3 1e 3f c6 51 d5 3e
       0.43847525 0.87544656 0.6199278 0.4166395
0002b0 41 b7 31 bf 63 4b 9f bf 0c 65 cc be 8e ce 0f be
       -0.6942025 -1.2444881 -0.39920843 -0.14043638
0002c0 f2 dc 07 be 1f c1 34 be fc 6a 28 be 1f 54 85 3c
       -0.13267878 -0.17651795 -0.16447061 0.016275464
0002d0 68 92 ed 3e 39 f2 ee be 69 ec 87 be bd 20 88 3e
       0.46400762 -0.46669176 -0.26547554 0.26587477
0002e0 4a 12 28 3e ec cf 33 3f 71 2c 79 be a6 30 34 be
       0.16413227 0.7023914 -0.2433336 -0.17596683
0002f0 c0 8a 75 be 67 15 c6 bd 1a d8 20 3d 77 59 89 3d
       -0.2397871 -0.09672051 0.03926859 0.06706517
000300 34 ca a1 3d 46 49 9d 3d 3e c6 89 3d cc bc 1a 3e
       0.07899895 0.076799914 0.06727265 0.15111083
000310 dd 12 52 be f9 4f 50 bf fb 0e 3e 3e 44 83 04 bd
       -0.20515008 -0.8137203 0.18560402 -0.032351747
000320 98 eb ad be 92 8f 9b 3e d6 d1 dd 3e d4 fa 17 3e
       -0.33968806 0.30382973 0.43324155 0.14841777
000330 34 d9 f0 3e 2a 09 22 be 5d 94 9e 3e bf 0b 3a bc
       0.47040713 -0.15823808 0.30972567 -0.01135534
000340 28 39 fd 3e 52 ad 1a 3f 15 60 85 3f cd 27 f8 3d
       0.4945767 0.60420716 1.0419947 0.121169664
000350 d9 2c 23 be 43 87 ad be c4 94 a4 3e ca 3c b1 3e
       -0.15935077 -0.3389226 0.3214475 0.3461669
000360 dc bb 72 be 3c f2 2d be 86 3d 75 3e b0 74 e4 be
       -0.23704475 -0.16986936 0.2394925 -0.44620275
000370 cf 9b 79 bf c0 e5 16 bf ed 72 41 3e 8a 41 12 bf
       -0.9750337 -0.5894432 0.18891497 -0.57131255
000380 4a d2 ea bd d4 b6 56 bf 16 9c e7 3d e8 b2 1f be
       -0.11465891 -0.83872724 0.11309068 -0.15595591
000390 d0 e3 04 3f 62 82 b4 3f 68 e4 13 3f ac 27 9b 3e
       0.51910114 1.410229 0.57770395 0.30303705
0003a0 f0 ed b1 3e a3 97 f3 bd 3a 6d 1f 3e 6d 99 06 bf
       0.34751844 -0.11894157 0.1556901 -0.5257786
0003b0 bc 0f a1 3d 9d 7e 93 3e 82 0f 06 3e 40 27 af 3e
       0.07864329 0.28807536 0.13091853 0.34209633
0003c0 c2 f2 c5 3e 8e e9 02 bf 49 3a 30 3e 63 99 7b bd
       0.38661772 -0.51137626 0.17209734 -0.061425578
0003d0 8e 80 21 3f 98 e4 08 3d 41 31 f4 bd 5d 7a 11 be
       0.63086784 0.03342113 -0.11923457 -0.14206834
0003e0 ec 23 e2 3e 62 ed 6a 3f c5 71 4b 3e ce 5b 20 3e
       0.4416803 0.9176847 0.19867618 0.1566002
0003f0 88 b5 5a bf 2c 60 a5 bf 77 2d 43 bf fd 28 f0 3d
       -0.85433245 -1.2919974 -0.7624125 0.11726568

fc1.bias f4 [64]
000000 ea 60 4e 3d 6c 1b e7 3e de 54 da 3e ce 3e ff 3e
       0.050385393 0.4513811 0.42642874 0.49852604
000010 93 9a 62 3e 35 17 8c 3e 1e f5 6d 3e 5f 26 4f bd
       0.22129278 0.27361456 0.23238036 -0.050573703
000020 06 d8 13 be 8e 85 44 be 22 94 76 bd 7a 03 fe be
       -0.14437875 -0.19191572 -0.060199864 -0.49612027
000030 ba 25 46 3e 87 70 b7 3c 40 27 21 be 32 d0 aa bd
       0.19350329 0.022392524 -0.15737629 -0.08340491
000040 49 c9 26 3f d4 99 31 bc 20 e3 0c be a1 4c 09 bf
       0.65150887 -0.010839898 -0.13758516 -0.5363255
000050 71 20 2a 3f 0c ab 6c 3e 52 43 a3 be bf f1 9b 3e
       0.6645575 0.23112124 -0.318873 0.30457875
000060 16 99 ff 3d 8f 8f 2c 3f 53 f3 13 bf 0b f0 dd be
       0.12480371 0.67406553 -0.5779316 -0.433472
000070 a4 3d 92 be b1 58 96 bd 51 92 c4 3e d1 80 08 bf
       -0.28562653 -0.07341135 0.3839288 -0.5332156
000080 6a 4e d3 3e b1 1f 55 3e 18 a5 b8 3e 37 a2 29 3e
       0.41270763 0.2081287 0.36063457 0.16565786
000090 99 71 fe be 9f 34 cd 3e 6d 16 b7 3d 4a c2 fb 3e
       -0.49696043 0.4007921 0.08939824 0.49171668
0000a0 75 da 3d 3e 84 72 4b bd 47 11 19 3e 42 75 8f 3e
       0.18540366 -0.049669757 0.14947997 0.28019148
0000b0 0d 2a 0d bf 92 66 53 be b5 c9 ff be 37 d4 a9 be
       -0.5514229 -0.20644596 -0.49958578 -0.3316972
0000c0 95 59 0a bf 86 8f 03 3f 6a 53 ad be 42 d3 ff be
       -0.5404294 0.51390874 -0.33852702 -0.49965864
0000d0 7d 4f 8c 3d 86 b6 e5 be 19 48 20 bf b8 4a ec 3e
       0.06851099 -0.44865817 -0.6261001 0.46150756
0000e0 02 8f c7 3e 55 bd 07 3f 8d 8f 44 3e 6e b8 b7 be
       0.38976294 0.5302327 0.19195385 -0.35882896
0000f0 6e 66 f1 be 3b 4f 98 be 9f 44 95 3d 9d a7 4f 3e
       -0.4714846 -0.29747948 0.07288479 0.20278783

fc2.weight f4 [1, 64]
000000 65 c9 ae 3d 78 b1 35 3e 3b 9d 8e 3e a5 79 8b 3e
       0.08534507 0.1774348 0.27854332 0.27241245
000010 d7 19 8d be 16 05 d4 be 79 e9 27 be 9b 55 20 3e
       -0.27558777 -0.4141013 -0.16397657 0.15657656
000020 f9 75 b0 be 58 d7 80 be a0 22 00 3b 70 a5 f1 3c
       -0.34465006 -0.25164294 0.0019551888 0.029497832
000030 86 53 2b 3e 87 b8 84 bd 53 16 3d be 55 de a1 bd
       0.1673108 -0.06480508 -0.18465547 -0.079037346
000040 e8 83 0f bb 68 00 6b 3d 8a 20 ed be 6a 00 b2 3c
       -0.002189869 0.057373434 -0.46313888 0.021728713
000050 7d 73 3b 3e 0a 26 13 3f 29 5c 2c be 6c 6d 2c 3e
       0.18305774 0.5747992 -0.16832031 0.16838616
000060 d1 2f 08 3f 50 fc 0c 3e 2b 62 84 3d f8 b7 10 3d
       0.5319796 0.13768125 0.064640366 0.035331696
000070 94 0f ab be f8 98 66 3b 8e 35 3c 3e 1b a3 c6 3d
       -0.33410323 0.0035186391 0.18379804 0.09699079
000080 bb 14 82 be 4c 8a f4 be 1a 5a f2 be e6 f1 44 bf
       -0.2540644 -0.47761762 -0.47334367 -0.7693161
000090 45 8d 3d 3d a2 a8 1c 3e 0f 23 28 3f 84 34 21 bf
       0.046277303 0.15298703 0.65678495 -0.6297076
0000a0 c0 73 80 3e a8 e1 27 3f 0a a7 27 3f f7 95 35 bf
       0.2508831 0.655787 0.65489256 -0.70931953
0000b0 66 30 4a 3d 87 18 2a be 86 75 11 3e 37 e5 a7 bc
       0.049362563 -0.16610919 0.14204988 -0.02049504
0000c0 d6 52 d1 bd 0f 44 ab bd 0a 2f 37 bc 74 5d 00 3e
       -0.10220878 -0.083625905 -0.011180649 0.1253565
0000d0 e7 3f e1 3e 2d 50 26 be 0b 88 d6 bd 9f 14 96 be
       0.43994066 -0.16241522 -0.10475167 -0.29312608
0000e0 26 bd 6c be 6e 0c 83 3e 4a 1e 6b 3d 16 1e 8b 3d
       -0.2311903 0.2559542 0.057401933 0.06792848
0000f0 8e b4 3f 3d ca f1 c1 bd 4c ad 41 3e c0 95 42 bf
       0.04680305 -0.09469946 0.18913764 -0.7600975

fc3.weight f4 [1, 64]
000000 78 13 44 bf 5b 10 10 bf 6b c6 36 bf 8a 96 29 bf
       -0.76592207 -0.56274956 -0.7139651 -0.6624533
000010 8c 3b 1e bd 37 68 27 bf 6f 3a 24 bf 94 c2 31 bf
       -0.038631007 -0.65393394 -0.6415166 -0.6943753
000020 ae 3a 0a bf 1c 08 34 bf a7 27 a0 bc da 4a d5 3d
       -0.5399579 -0.70324874 -0.019550158 0.104146674
000030 d3 dd 36 bf 7c 31 3b bf d2 55 ee be 0d dc 49 bf
       -0.71432227 -0.7312238 -0.4654985 -0.78851396
000040 af d2 20 bf 64 66 3d bf e7 36 ae 3d a5 c0 d5 3c
       -0.6282148 -0.7398436 0.085065655 0.026092837
000050 53 5b f5 be c1 85 ae be 83 26 1c bf 70 d9 b4 be
       -0.47921237 -0.3408642 -0.60996264 -0.35322142
000060 df ae 9b be d8 a1 07 bf 5e e4 e3 3c fb 66 72 be
       -0.30406854 -0.5298133 0.027818855 -0.23672096
000070 ee 02 d4 be d8 b2 98 3d 03 50 2f be 85 69 82 be
       -0.41408485 0.07455987 -0.17120366 -0.2547113
000080 3c 1e b0 bc 93 08 df be 28 ff 71 be 6e be fd be
       -0.021498792 -0.4356123 -0.2363249 -0.4955935
000090 83 ca ac 3d 88 55 23 be cd 57 2f bf b4 4f 9a be
       0.084370635 -0.15950596 -0.6849335 -0.30138934
0000a0 90 ad 33 bf 58 5a b4 be 2c 03 1d bf b1 b7 93 be
       -0.7018671 -0.35225177 -0.61332965 -0.28851083
0000b0 e6 f0 93 bd 51 28 27 bf 10 ec 72 3d e4 a4 92 3d
       -0.07223682 -0.6529589 0.059307158 0.07160357
0000c0 ac b5 a2 bd 3c 3c 10 bf ef 85 ac be 7b b9 94 be
       -0.079448074 -0.5634191 -0.33695933 -0.2904776
0000d0 a2 6f 1f bf 1d 9c be bd 84 33 ec bd c4 11 18 bf
       -0.62279713 -0.0930712 -0.11533263 -0.5940211
0000e0 9d 94 30 bf 92 ea 16 bf dc 1c 35 bf 47 9b f5 bd
       -0.68976766 -0.58951676 -0.7074716 -0.119925074
0000f0 5d 39 db be cc 40 07 bf 86 e1 4e bd 31 82 0a bf
       -0.42817202 -0.5283325 -0.050508045 -0.54104906
