save/ppo/InvertedPendulum-v2/actor_old_model.pkl (torch_old, 1856 bytes, 4 tensors)

fc1.weight f4 [32, 4]
0.1725192 0.17337382 -0.37558421 -0.22892047 0.45290917 0.20146014 -0.24911566 -0.111340865
-0.40303838 0.022618877 -0.35623097 0.45778838 0.42288658 -0.29361323 0.51597786 -0.3730044
-0.007857675 0.3440617 -0.18789232 -0.030157657 0.02691861 -0.38493145 -0.3639962 -0.20221193
0.18509178 0.42161882 0.4640853 0.3317649 -0.4019752 0.522477 -0.2704531 0.6109143
-0.442843 0.5717439 0.57199526 0.19007872 -0.18342309 -0.029646918 -0.11554992 0.42252082
0.09803316 -0.9400642 -0.22620755 -0.4662583 0.18568017 0.23452403 -0.28194532 0.42915037
-0.42277464 -0.73787725 -0.5412815 0.09965465 -0.06886267 0.7319406 0.12616092 -0.35844195
0.39169756 0.17414948 0.48372927 0.49979937 -0.3957662 -0.5058646 -0.43298462 -0.5508197
0.42028275 1.058106 -0.13707064 0.4005583 0.2204576 -0.088446155 0.2796349 -0.62214816
-0.35769522 -0.19051313 -0.32750475 -0.44096127 -0.17154601 -0.77247083 -0.2114396 0.21543212
-0.16226201 -0.1416 -0.24615139 -0.25883844 0.270715 0.01037447 -0.27260813 -0.4384908
0.18706003 -0.14452852 0.23864336 0.17937335 -0.25191838 0.6798041 -0.25562775 0.5212909
-0.3846358 -0.16716807 0.07448739 -0.42259634 -0.2291778 -0.27783617 0.28980312 -0.3347445
0.19751048 -0.3795499 -0.10125491 0.18538266 0.37815836 0.96454215 -0.13875909 0.21820678
0.30628812 -0.59247833 0.0855137 -0.16690566 0.4318451 -0.35073075 -0.4900511 -0.0046035955
0.24542727 -0.6861628 -0.20307803 -0.64635617 0.35684985 0.053823657 0.16917217 0.19258419
00000000: e0a8 303e e888 313e 934c c0be 216a 6abe
00000010: b6e3 e73e 914b 4e3e 2d18 7fbe ae06 e4bd
00000020: 0c5b cebe 394b b93c e863 b6be 3d63 ea3e
00000030: 9784 d83e 7954 96be 2017 043f 6ffa bebe
00000040: 7abd 00bc db28 b03e d866 40be 310d f7bc
00000050: 6b84 dc3c bc15 c5be b65d babe a510 4fbe
00000060: b388 3d3e 6cde d73e 979c ed3e 17dd a93e
00000070: b2cf cdbe 0dc1 053f d478 8abe e164 1c3f
00000080: 51bc e2be cf5d 123f 486e 123f ffa3 423e
00000090: 43d3 3bbe 18de f2bc 70a5 ecbd a654 d83e
000000a0: 9cc5 c83d 0ca8 70bf f4a2 67be 68b9 eebe
000000b0: f122 3e3e 1127 703e 235b 90be 99b9 db3e
000000c0: eb75 d8be 86e5 3cbf 6d91 0abf bd17 cc3d
000000d0: df07 8dbd 7660 3b3f 5430 013e b485 b7be
000000e0: 958c c83e 3e54 323e 5dab f73e b4e5 ff3e
000000f0: dea1 cabe 5880 01bf 29b0 ddbe 8502 0dbf
00000100: 4d2f d73e 0470 873f 3f5c 0cbe fa15 cd3e
00000110: a3bf 613e 4223 b5bd 4e2c 8f3e 1a45 1fbf
00000120: d423 b7be e015 43be b4ae a7be adc5 e1be
00000130: c2a9 2fbe a6c0 45bf 9f83 58be 3d9a 5c3e
00000140: 0328 26be 97ff 10be 1c0f 7cbe 7986 84be
00000150: 289b 8a3e aef9 293c 4b93 8bbe de81 e0be
00000160: aa8c 3f3e 49ff 13be ed5e 743e a6ad 373e
00000170: 72fb 80be a407 2e3f a4e1 82be 5273 053f
00000180: fcee c4be 1b2e 2bbe d88c 983d 8c5e d8be
00000190: 96ad 6abe 8b40 8ebe 1361 943e a263 abbe
000001a0: 3040 4a3e 5d54 c2be bc5e cfbd f4d4 3d3e
000001b0: f99d c13e 3cec 763f dd16 0ebe 9971 5f3e
000001c0: ccd1 9c3e a9ac 17bf cf21 af3d 51e9 2abe
000001d0: cd1a dd3e fb92 b3be fae7 fabe c2d9 96bb
000001e0: 4951 7b3e 5ea8 2fbf b0f3 4fbe 9977 25bf
000001f0: 06b5 b63e 3276 5c3d 783b 2d3e ca34 453e

fc1.bias f4 [32]
-0.29147694 -0.14359087 -0.1973392 -0.19459388 -0.40841913 0.32024723 0.033500407 0.058611423
0.33216727 -0.2593857 0.14035606 0.19497462 -0.31566295 -0.07468687 0.121153995 -0.371631
0.22282438 -0.21853322 0.2158893 0.05464787 0.3592624 0.38747334 -0.32421318 0.4175415
-0.1649365 0.11419289 0.07450161 0.52902746 0.53117514 -0.11802326 0.24240613 -0.3701808
00000000: 773c 95be 7c09 13be 4a13 4abe 9e43 47be
00000010: 501c d1be 72f7 a33e b937 093d 8812 703d
00000020: d411 aa3e 34ce 84be 80b9 0f3e 6da7 473e
00000030: 939e a1be 6ef5 98bd 961f f83d 6b46 bebe
00000040: 132c 643e 2cc7 5fbe 1612 5d3e 72d6 5f3d
00000050: 3ef1 b73e e862 c63e 45ff a5be 00c8 d53e
00000060: 1de5 28be f6dd e93d 4d94 983d 586e 073f
00000070: 18fb 073f 2eb6 f1bd 5039 783e 5688 bdbe

fc2.weight f4 [1, 32]
-0.06841158 -0.006281828 0.04178005 -0.014132706 0.158704 -0.16907856 0.18698762 0.13711734
0.271664 -0.03409433 -0.35934326 0.12631862 -0.23603326 0.114722446 0.30301508 -0.23841526
0.29729736 -0.22491491 -0.36770445 -0.07762785 -0.1861457 -0.061628018 -0.0984355 0.23791404
-0.04818758 -0.019070614 -0.013964607 0.23554897 -0.13704023 -0.09220749 -0.24274911 0.0008997364
00000000: 5f1b 8cbd cbd7 cdbb 8f21 2b3d de8c 67bc
00000010: 4d83 223e ee22 2dbe af79 3f3e 7d68 0c3e
00000020: 8b17 8b3e 7fa6 0bbd d7fb b7be ab59 013e
00000030: b4b2 71be 9af3 ea3d cb24 9b3e 2123 74be
00000040: 5c37 983e 1850 66be c243 bcbe 5afb 9ebd
00000050: fa9c 3ebe a96d 7cbd 8d98 c9bd bd9f 733e
00000060: 5760 45bd fa39 9cbc cfcb 64bc c033 713e
00000070: 4654 0cbe 48d7 bcbd 3993 78be 4adc 6b3a

fc3.weight f4 [1, 32]
-0.015682828 -0.11127287 -0.17950356 -0.23495737 -0.08829017 -0.08201405 -0.051777806 -0.3199865
-0.15993272 -0.1554537 0.046428513 -0.08680112 -0.01570752 -0.06815488 -0.07254414 -0.16629206
-0.1513193 -0.058873147 -0.133144 -0.08729987 -0.15158537 -0.22416463 -0.1268604 -0.2125248
-0.16310227 -0.094703525 -0.24619934 -0.27338427 -0.18634823 -0.04673615 -0.079820566 0.08820428
00000000: 4679 80bc 08e3 e3bd c8cf 37be aa98 70be
00000010: 7ad1 b4bd fbf6 a7bd f714 54bd 45d5 a3be
00000020: 67c5 23be 412f 1fbe d32b 3e3d c9c4 b1bd
00000030: 0fad 80bc c994 8bbd 0692 94bd 7748 2abe
00000040: 72f3 1abe f824 71bd e756 08be 46ca b2bd
00000050: 3239 1bbe 6a8b 65be b1e7 01be 1aa0 59be
00000060: 4804 27be ecf3 c1bd ae1b 7cbe 06f9 8bbe
00000070: 12d2 3ebe 686e 3fbd f778 a3bd 72a4 b43d
