save/ppo/InvertedPendulum-v2/actor_model.pkl (torch_old, 2753 bytes, 4 tensors)

fc1.weight f4 [64, 4]
000000 b0 63 0a 3f 86 5c 86 be f0 9f 50 3e 57 42 14 bf
       0.5405836 -0.26242465 0.20373511 -0.57913727
000010 15 c0 a0 3e 9d d4 93 3f 8b 0d 23 3f 7b 66 77 3e
       0.31396547 1.154926 0.6369254 0.24160187
000020 1e c0 d3 3e 7a 0e f4 3f 23 65 d7 3e ee 4a 9c 3e
       0.4135751 1.9066918 0.4206935 0.30525917
000030 0e d5 fb 3e 11 16 b8 3f 3a fc f4 3e 0c e0 28 be
       0.49185985 1.4381734 0.47848684 -0.16491717
000040 36 04 60 be 02 e8 97 bf 59 fc 1a be f4 66 ab be
       -0.21876606 -1.1867678 -0.15135325 -0.33476985
000050 27 79 3b bf 7a 48 33 bf 8b 87 55 bf 32 f2 3d 3f
       -0.7323174 -0.70032465 -0.8340995 0.74197686
000060 7c 4a 41 bf 29 87 8d be 03 ea 6b be f3 16 6f 3e
       -0.7550428 -0.27642182 -0.23038487 0.23348598
000070 ce f2 a8 be 30 87 3e 3f d6 1f fc 3e 94 7e 04 bf
       -0.32997745 0.7442503 0.4924304 -0.5175564
000080 b5 48 2f 3f d7 0b 6a bf d8 74 52 be 44 12 1a bf
       0.6847032 -0.91424316 -0.20552385 -0.6018412
000090 e9 9c 25 3f ee ba 2c bf c2 d1 02 3f 79 b8 ac be
       0.6469255 -0.6747273 0.51101315 -0.3373449
0000a0 e5 61 d0 3d dc 83 8b bf bc 11 f0 be 89 d3 a8 be
       0.10174922 -1.0899615 -0.4688853 -0.3297389
0000b0 3e 4c 91 bb 40 50 e2 3c c8 f4 3d be 8a 63 1f bc
       -0.0044341376 0.027626157 -0.18550408 -0.009728322
0000c0 ab fe 08 3e 75 40 1c 3f a8 c0 17 bf ae ca 26 3f
       0.13378398 0.61035854 -0.59278345 0.65153015
0000d0 7a df 36 be 7f 0c 99 3d cf 0a ba 3e 6f 29 34 bf
       -0.17858687 0.074730866 0.3633637 -0.7037572
0000e0 51 ee 04 3f 20 ea 54 bf 00 15 e5 3e 6e af 7a be
       0.5192614 -0.83169746 0.44742584 -0.24480984
0000f0 98 f0 15 3d fb f1 0c bf e2 24 a4 3e b2 ea 88 be
       0.0366064 -0.5505673 0.3205939 -0.26741558
000100 c6 c1 43 bc 31 85 a3 3f 3f 4d 10 3f c5 eb 15 3f
       -0.011948055 1.2775022 0.5636787 0.5856288
000110 64 62 30 be 9a 9e 0f 3f 0a 62 f6 3e 22 d1 f9 be
       -0.17225033 0.5610138 0.48121673 -0.48792368
000120 f1 35 37 bf f0 86 30 bf 55 23 87 be ad 82 24 be
       -0.71566683 -0.689559 -0.26394144 -0.16065474
000130 2c c7 c6 be 09 ca ba 3e d5 e6 04 3e 14 3c 8f bc
       -0.3882383 0.36482266 0.1297868 -0.017484702
000140 81 6d 19 3f ce aa 31 3f 2f 79 76 3e ad 4a 85 bd
       0.59932715 0.6940125 0.24069665 -0.06508384
000150 da 65 05 3f 08 0f 62 3f be 79 8c 3e 64 18 f9 3e
       0.5210854 0.88304186 0.27436632 0.4865142
000160 a8 3d 18 3f 6e c4 04 bf 40 55 ff 3e b1 39 2b bf
       0.5946908 -0.5186223 0.49869728 -0.66884905
000170 cd e5 18 3f a6 a8 a5 3f 6e 32 31 3d 1c bd 57 3d
       0.5972565 1.2942092 0.043260984 0.052670583
000180 43 df ea 3e 1d c7 83 3f ad 89 ca 3e e2 04 e2 3e
       0.4587346 1.029514 0.39558163 0.4414435
000190 74 c5 a7 3e 8d ae 84 3f 89 8d 3b 3f 82 29 61 3e
       0.32767832 1.0365769 0.7326284 0.2198849
0001a0 a6 28 d5 3d 61 ed 37 3d 26 d6 2d be 1a 9b a6 3d
       0.10408144 0.044904117 -0.16976222 0.08135052
0001b0 e5 43 07 bf 7a e8 27 3e 87 bc 04 3f 1a ea 95 3e
       -0.52837974 0.16397277 0.5185017 0.29280168
0001c0 f5 ee 28 3c 8e 23 a6 bf 2e ea 88 3e 48 4a 56 bf
       0.010310878 -1.29796 0.26741165 -0.83707094
0001d0 e4 2f d1 bc cc fe 60 be 32 82 37 bc 4a 8f 6e 3c
       -0.025535531 -0.21972197 -0.011200475 0.01456053
0001e0 78 63 e8 3e 74 a0 7f 3f d9 33 7d 3e 94 fc 8d 3e
       0.4538839 0.9985421 0.2472681 0.27731764
0001f0 07 ae 7a be 5c 01 87 be 8a f6 9d 3c 7d 51 91 be
       -0.24480449 -0.26368225 0.019282598 -0.28382483
000200 ad cd 4c be 57 28 6c bf 84 77 05 bf 42 d5 33 bf
       -0.20000334 -0.92249054 -0.5213549 -0.7024728
000210 0f 5c 3d bf 4e ba 42 bf f7 a8 4b 3c 20 22 01 bf
       -0.73968595 -0.7606553 0.012430421 -0.50442696
000220 3d e5 1e bf 55 a0 33 bf 22 72 1d be e9 a5 11 bf
       -0.6206854 -0.7016652 -0.1537557 -0.56893784
000230 f9 1b 5d bf d0 3c d6 bb 24 b2 ae 3d 19 18 79 be
       -0.8637081 -0.006538011 0.085300714 -0.24325599
000240 e1 d3 9c be 46 a5 09 bd 6e 19 51 3e dc e5 4e 3e
       -0.306304 -0.033604883 0.20419857 0.20204872
000250 08 3d 19 3f 10 cc 98 3f 0e de 90 3e f2 54 b2 3e
       0.5985875 1.1937275 0.28294414 0.34830433
000260 3e 21 b6 3e 26 00 db 3e 7a be 7d 3f 6e 96 22 3e
       0.35572237 0.4277355 0.9911877 0.15877697
000270 c9 51 43 bf 80 90 99 bf 96 eb 23 be 17 bb 2d bf
       -0.7629667 -1.1997223 -0.16007838 -0.678636
000280 da e7 86 3e 1f 3b 96 3d 7b cc 5a 3f 00 63 09 bf
       0.26348764 0.07335495 0.8546826 -0.53666687
000290 f7 6e cf 3e e6 d1 92 3f e8 64 6b be c6 61 91 3e
       0.40514347 1.1470306 -0.22987711 0.28394908
0002a0 8c 9e e5 3e e8 8d 5d 3f 3b 24 1c 3f 7e 70 da 3e
       0.44847524 0.86544657 0.60992783 0.4266395
0002b0 9d 46 34 bf b5 03 9e bf 54 46 c7 be ff 0b 1a be
       -0.7042025 -1.2344881 -0.38920844 -0.15043639
0002c0 f2 dc 07 be 1f c1 34 be fc 6a 28 be 1f 54 85 3c
       -0.13267878 -0.17651795 -0.16447061 0.016275464
0002d0 20 b1 f2 3e f1 10 f4 be 21 0b 8d be 75 3f 8d 3e
       0.4740076 -0.47669175 -0.27547553 0.27587476
0002e0 4a 12 28 3e ec cf 33 3f 71 2c 79 be a6 30 34 be
       0.16413227 0.7023914 -0.2433336 -0.17596683
0002f0 c0 8a 75 be 67 15 c6 bd 1a d8 20 3d 77 59 89 3d
       -0.2397871 -0.09672051 0.03926859 0.06706517
000300 34 ca a1 3d 46 49 9d 3d 3e c6 89 3d cc bc 1a 3e
       0.07899895 0.076799914 0.06727265 0.15111083
000310 4e 50 5c be 9d c0 4d bf 6c 4c 48 3e 06 79 2d bd
       -0.21515009 -0.8037203 0.19560403 -0.042351745
000320 98 eb ad be 92 8f 9b 3e d6 d1 dd 3e d4 fa 17 3e
       -0.33968806 0.30382973 0.43324155 0.14841777
000330 34 d9 f0 3e 2a 09 22 be 5d 94 9e 3e bf 0b 3a bc
       0.47040713 -0.15823808 0.30972567 -0.01135534
000340 f0 2b 01 3f f6 1d 18 3f 67 18 84 3f 57 51 06 3e
       0.5045767 0.59420717 1.0319947 0.13116966
000350 d9 2c 23 be 43 87 ad be c4 94 a4 3e ca 3c b1 3e
       -0.15935077 -0.3389226 0.3214475 0.3461669
000360 dc bb 72 be 3c f2 2d be 86 3d 75 3e b0 74 e4 be
       -0.23704475 -0.16986936 0.2394925 -0.44620275
000370 2b 2b 7c bf 64 56 14 bf 5e b0 4b 3e e6 d0 14 bf
       -0.9850337 -0.5794432 0.19891497 -0.58131254
000380 2b 4d ff bd 78 27 54 bf f7 16 fc 3d 59 f0 29 be
       -0.124658905 -0.82872725 0.12309068 -0.16595592
000390 2c 73 07 3f b4 3a b3 3f 0c 55 11 3f 64 46 a0 3e
       0.52910113 1.400229 0.56770396 0.31303704
0003a0 a8 0c b7 3e 42 09 04 be c9 2f 15 3e 11 0a 04 bf
       0.35751843 -0.12894157 0.1456901 -0.5157786
0003b0 bc 0f a1 3d 9d 7e 93 3e 82 0f 06 3e 40 27 af 3e
       0.07864329 0.28807536 0.13091853 0.34209633
0003c0 c2 f2 c5 3e 8e e9 02 bf 49 3a 30 3e 63 99 7b bd
       0.38661772 -0.51137626 0.17209734 -0.061425578
0003d0 8e 80 21 3f 98 e4 08 3d 41 31 f4 bd 5d 7a 11 be
       0.63086784 0.03342113 -0.11923457 -0.14206834
0003e0 a4 42 e7 3e 06 5e 68 3f 54 34 41 3e 3f 99 2a 3e
       0.4516803 0.9076847 0.18867618 0.16660021
0003f0 2c 26 58 bf da a7 a6 bf 1b 9e 40 bf 1c ae db 3d
       -0.84433246 -1.3019974 -0.7524125 0.10726568

fc1.bias f4 [64]
000000 28 6b 25 3d b4 fc e1 3e 26 36 d5 3e 16 20 fa 3e
       0.040385395 0.4413811 0.41642874 0.48852605
000010 04 d8 6c 3e ed 35 91 3e 8f 32 78 3e 22 1c 78 bd
       0.23129278 0.28361455 0.24238037 -0.060573705
000020 95 9a 09 be 1d 48 3a be f2 c4 8f bd 7a 03 fe be
       -0.13437875 -0.18191572 -0.07019986 -0.49612027
000030 49 e8 3b 3e 06 ae 04 3d d0 e9 16 be 51 55 96 bd
       0.18350329 0.032392524 -0.1473763 -0.073404916
000040 a5 58 29 3f 70 b8 aa bc 20 e3 0c be a1 4c 09 bf
       0.66150886 -0.0208399 -0.13758516 -0.5363255
000050 15 91 27 3f 9b 6d 62 3e 9a 24 9e be 07 d3 96 3e
       0.6545575 0.22112124 -0.308873 0.29457876
000060 35 1e eb 3d 33 00 2a 3f 53 f3 13 bf 0b f0 dd be
       0.11480371 0.66406554 -0.5779316 -0.433472
000070 ec 1e 8d be b1 58 96 bd 99 73 bf 3e d1 80 08 bf
       -0.27562654 -0.07341135 0.37392882 -0.5332156
000080 22 6d d8 3e 22 5d 5f 3e d0 c3 bd 3e a8 df 33 3e
       0.42270762 0.21812871 0.37063456 0.17565787
000090 99 71 fe be e7 15 c8 3e 8c 9b a2 3d 81 70 00 3f
       -0.49696043 0.3907921 0.079398245 0.5017167
0000a0 04 9d 33 3e c2 7c 22 bd d6 d3 0e 3e fa 93 94 3e
       0.17540365 -0.03966976 0.13947996 0.29019147
0000b0 0d 2a 0d bf 21 29 49 be b5 c9 ff be 37 d4 a9 be
       -0.5514229 -0.19644596 -0.49958578 -0.3316972
0000c0 95 59 0a bf e2 1e 06 3f 6a 53 ad be 42 d3 ff be
       -0.5404294 0.52390873 -0.33852702 -0.49965864
0000d0 38 a9 6f 3d 86 b6 e5 be 19 48 20 bf 70 69 f1 3e
       0.05851099 -0.44865817 -0.6261001 0.47150755
0000e0 ba ad cc 3e f9 2d 05 3f 1c 52 3a 3e 6e b8 b7 be
       0.39976293 0.52023274 0.18195385 -0.35882896
0000f0 6e 66 f1 be 3b 4f 98 be be c9 80 3d 0e e5 59 3e
       -0.4714846 -0.29747948 0.06288479 0.21278784

fc2.weight f4 [1, 64]
000000 84 4e 9a 3d 07 74 2b 3e 83 7e 89 3e ed 5a 86 3e
       0.07534507 0.1674348 0.26854333 0.26241246
000010 8f 38 92 be 5e e6 ce be ea 26 32 be 2a 18 16 3e
       -0.28558776 -0.4041013 -0.17397657 0.14657655
000020 41 57 ab be 3f 71 77 be 61 ce 03 bc 70 a5 f1 3c
       -0.33465007 -0.24164294 -0.00804481 0.029497832
000030 f7 90 35 3e 68 33 99 bd e2 d8 32 be 36 59 b6 bd
       0.17731081 -0.07480508 -0.17465547 -0.089037344
000040 04 b8 47 bc a5 0a 42 3d 8a 20 ed be 6a 00 b2 3c
       -0.012189869 0.047373433 -0.46313888 0.021728713
000050 0c 36 31 3e ae 96 10 3f 9a 99 36 be fb 2f 22 3e
       0.17305773 0.5647992 -0.17832032 0.15838616
000060 75 a0 05 3f df be 02 3e 2b 62 84 3d f8 b7 10 3d
       0.52197963 0.12768124 0.064640366 0.035331696
000070 4c 2e b0 be f8 98 66 3b 1d f8 31 3e 1b a3 c6 3d
       -0.34410322 0.0035186391 0.17379804 0.09699079
000080 73 33 87 be 04 a9 f9 be d2 78 f7 be 42 81 47 bf
       -0.2640644 -0.4876176 -0.48334366 -0.77931607
000090 45 8d 3d 3d 31 6b 12 3e b3 93 25 3f e0 c3 23 bf
       0.046277303 0.14298703 0.64678496 -0.63970757
0000a0 0f aa 76 3e 04 71 2a 3f ae 17 25 3f 53 25 38 bf
       0.2408831 0.665787 0.6448926 -0.7193195
0000b0 66 30 4a 3d f8 55 34 be 86 75 11 3e 37 e5 a7 bc
       0.049362563 -0.1761092 0.14204988 -0.02049504
0000c0 d6 52 d1 bd f0 be bf bd 0a 2f 37 bc 74 5d 00 3e
       -0.10220878 -0.0936259 -0.011180649 0.1253565
0000d0 2f 21 dc 3e 2d 50 26 be 0b 88 d6 bd 57 33 9b be
       0.42994067 -0.16241522 -0.10475167 -0.30312607
0000e0 97 fa 76 be 6b db 7b 3e 88 28 42 3d 16 1e 8b 3d
       -0.2411903 0.2459542 0.047401935 0.06792848
0000f0 8e b4 3f 3d ca f1 c1 bd db 6f 37 3e 1c 25 45 bf
       0.04680305 -0.09469946 0.17913763 -0.7700975

fc3.weight f4 [1, 64]
000000 25 84 41 bf b7 9f 12 bf c7 55 39 bf e6 25 2c bf
       -0.7559226 -0.57274956 -0.7239651 -0.6724533
000010 4e 31 47 bd 93 f7 29 bf cb c9 26 bf 38 33 2f bf
       -0.048631005 -0.66393393 -0.6515166 -0.6843753
000020 0a ca 0c bf 78 97 36 bf 4e 78 1c bc da 4a d5 3d
       -0.5499579 -0.7132487 -0.009550167 0.104146674
000030 2f 6d 39 bf 20 a2 38 bf 8a 74 f3 be 67 6b 4c bf
       -0.72432226 -0.72122383 -0.4754985 -0.7985138
000040 0b 62 23 bf 08 d7 3a bf e7 36 ae 3d a5 c0 d5 3c
       -0.63821477 -0.7298436 0.085065655 0.026092837
000050 0b 7a fa be 79 a4 b3 be df b5 1e bf 28 f8 b9 be
       -0.48921236 -0.3508642 -0.61996263 -0.3632214
000060 97 cd a0 be 34 31 0a bf 5e e4 e3 3c fb 66 72 be
       -0.31406853 -0.5398133 0.027818855 -0.23672096
000070 a5 21 d9 be d8 b2 98 3d 74 8d 39 be 85 69 82 be
       -0.4240848 0.07455987 -0.18120366 -0.2547113
000080 e0 04 01 bd 4b 27 e4 be 98 3c 7c be b8 9f f8 be
       -0.03149879 -0.44561228 -0.2463249 -0.48559356
000090 83 ca ac 3d f9 92 2d be 28 e7 31 bf 6c 6e 9f be
       0.084370635 -0.16950597 -0.6949334 -0.31138933
0000a0 34 1e 31 bf 10 79 b9 be 88 92 1f bf 69 d6 98 be
       -0.6918671 -0.36225176 -0.62332964 -0.29851082
0000b0 e6 f0 93 bd ad b7 29 bf 10 ec 72 3d e4 a4 92 3d
       -0.07223682 -0.6629589 0.059307158 0.07160357
0000c0 ac b5 a2 bd 98 cb 12 bf ef 85 ac be 7b b9 94 be
       -0.079448074 -0.5734191 -0.33695933 -0.2904776
0000d0 99 fe 21 bf 1d 9c be bd 84 33 ec bd 20 a1 1a bf
       -0.6327911 -0.0930712 -0.11533263 -0.6040211
0000e0 f9 23 33 bf ee 79 19 bf 38 ac 37 bf 47 9b f5 bd
       -0.69976765 -0.59951675 -0.7174716 -0.119925074
0000f0 5d 39 db be cc 40 07 bf 46 d7 77 bd 8d 11 0d bf
       -0.42817202 -0.5283325 -0.060508035 -0.55104905
