save/ppo/InvertedPendulum-v2/actor_model.pkl (torch_old, 1856 bytes, 4 tensors)

fc1.weight f4 [32, 4]
0	0x3e30a8e0	0.1725192
1	0x3e3188e8	0.17337382
2	0xbec04c93	-0.37558421
3	0xbe6a6a21	-0.22892047
4	0x3ee760a4	0.45190918
5	0x3e4d456c	0.20046014
6	0xbe7e1208	-0.24811566
7	0xbde612f8	-0.11234087
8	0xbecdd7fa	-0.4020384
9	0x3cb11a1a	0.021618892
10	0xbeb6e6fa	-0.35723096
11	0x3eeae64f	0.45878837
12	0x3ed907a9	0.42388657
13	0xbe96d78b	-0.2946132
14	0x3f0458a9	0.51697785
15	0xbebe775d	-0.37200442
16	0xbc00bd7a	-0.007857675
17	0x3eb028db	0.3440617
18	0xbe4066d8	-0.18789232
19	0xbcf70d31	-0.030157657
20	0x3ce4b592	0.02791861
21	0xbec598ce	-0.38593143
22	0xbeb9daa4	-0.36299622
23	0xbe5016ca	-0.20321193
24	0x3e3c828e	0.18409178
25	0x3ed8617e	0.4226188
26	0x3eed1985	0.46308532
27	0x3eaa6029	0.3327649
28	0xbecd4ca0	-0.40097523
29	0x3f060296	0.52347696
30	0xbe8afbe6	-0.27145308
31	0x3f1ca66a	0.6119143
32	0xbee33f63	-0.44384298
33	0x3f129f58	0.5727439
34	0x3f122cbf	0.5709953
35	0x3e43aa24	0.19107872
36	0xbe3cd968	-0.18442309
37	0xbcfb0f3e	-0.030646916
38	0xbdea9926	-0.11454992
39	0x3ed7d194	0.42152083
40	0x3dcad1e6	0.09903316
41	0xbf70e995	-0.9410642
42	0xbe669ccf	-0.22520755
43	0xbeef3c7a	-0.46725827
44	0x3e3d1ccc	0.18468016
45	0x3e712d36	0.23552403
46	0xbe90de35	-0.2829453
47	0x3edc3cab	0.43015036
48	0xbed8f8fd	-0.42377463
49	0xbf3ca3fd	-0.73687726
50	0xbf0ad2f6	-0.5422815
51	0x3dce2407	0.100654654
52	0xbd8f1429	-0.06986267
53	0x3f3ba1ff	0.7329406
54	0x3e002a2f	0.12516092
55	0xbeb702a2	-0.35744196
56	0x3ec80983	0.39069757
57	0x3e335a63	0.17514949
58	0x3ef7284b	0.4827293
59	0x3f003463	0.50079936
60	0xbecaa1de	-0.3957662
61	0xbf018058	-0.5058646
62	0xbeddb029	-0.43298462
63	0xbf0d0285	-0.5508197
64	0x3ed6ac3b	0.41928276
65	0x3f8790c9	1.059106
66	0xbe0d6264	-0.13807064
67	0x3ecd990c	0.40155828
68	0x3e62c5c8	0.2214576
69	0xbdb72f8c	-0.08944616
70	0x3e8faf60	0.28063488
71	0xbf1f86a3	-0.62314814
72	0xbeb6a0c2	-0.35669523
73	0xbe441c05	-0.19151314
74	0xbea72ba2	-0.32650477
75	0xbee248bf	-0.44196126
76	0xbe30afe7	-0.17254601
77	0xbf46022f	-0.7734708
78	0xbe577d7a	-0.2104396
79	0x3e5b9418	0.21443212
80	0xbe2521de	-0.161262
81	0xbe1205bc	-0.1426
82	0xbe7b08f7	-0.24515139
83	0xbe85098b	-0.25983843
84	0x3e8b1e3a	0.271715
85	0x3c199760	0.0093744695
86	0xbe8b1039	-0.27160814
87	0xbee104f0	-0.4394908
88	0x3e3f8caa	0.18706003
89	0xbe13ff49	-0.14452852
90	0x3e745eed	0.23864336
91	0x3e37ada6	0.17937335
92	0xbe817e84	-0.25291836
93	0x3f2e492d	0.6808041
94	0xbe8364b6	-0.25662774
95	0x3f05b4db	0.5222909
96	0xbec5720e	-0.3856358
97	0xbe2a27f6	-0.16616806
98	0x3d96808e	0.073487386
99	0xbed7db7a	-0.42159635
100	0xbe69a771	-0.2281778
101	0xbe8dbd79	-0.2768362
102	0x3e94e425	0.2908031
103	0xbeaae090	-0.33374453
104	0x3e493a0b	0.19651048
105	0xbec2d76f	-0.38054988
106	0xbdcd5272	-0.10025491
107	0x3e3ccecf	0.18438266
108	0x3ec11ae7	0.37715837
109	0x3f772dc5	0.96554214
110	0xbe0f1d02	-0.1397591
111	0x3e6077be	0.21920678
112	0x3e9d54de	0.3072881
113	0xbf17ee32	-0.5934783
114	0x3db12e19	0.086513706
115	0xbe2bef76	-0.16790566
116	0x3edc97bb	0.4308451
117	0xbeb4160d	-0.35173073
118	0xbefa64e8	-0.4890511
119	0xbbb79e5d	-0.005603595
120	0x3e7c576e	0.24642727
121	0xbf2fe9e7	-0.6871628
122	0xbe4eed8b	-0.20207803
123	0xbf25b922	-0.64735615
124	0x3eb6b506	0.35684985
125	0x3d5c7632	0.053823657
126	0x3e2d3b78	0.16917217
127	0x3e4534ca	0.19258419

fc1.bias f4 [32]
0	0xbe953c77	-0.29147694
1	0xbe140fa1	-0.14459087
2	0xbe490d25	-0.1963392
3	0xbe4849c3	-0.19559388
4	0xbed11c50	-0.40841913
5	0x3ea47a84	0.32124722
6	0x3d051f26	0.03250041
7	0x3d6bf9f5	0.057611424
8	0x3ea98ec2	0.33116728
9	0xbe855146	-0.2603857
10	0x3e10bfa5	0.14135607
11	0x3e46a148	0.19397461
12	0xbea11b81	-0.31466296
13	0xbd9b01b8	-0.07568687
14	0x3df6134c	0.12015399
15	0xbebe466b	-0.371631
16	0x3e6325ee	0.22182438
17	0xbe5ec107	-0.21753322
18	0x3e5e183b	0.2168893
19	0x3d5bbddf	0.053647872
20	0x3eb87450	0.3602624
21	0x3ec5dfd6	0.38647336
22	0xbea5ff45	-0.32421318
23	0x3ed544ee	0.41654152
24	0xbe29eb42	-0.1659365
25	0x3de7d1ac	0.113192886
26	0x3d968803	0.07350161
27	0x3f072ccf	0.5280275
28	0x3f083ca1	0.5321751
29	0xbdf3c278	-0.11902326
30	0x3e793f75	0.24340613
31	0xbebd8856	-0.3701808

fc2.weight f4 [1, 32]
0	0xbd8c1b5f	-0.06841158
1	0xbbad1330	-0.0052818283
2	0x3d2f3a22	0.04278005
3	0xbc77ef2c	-0.015132707
4	0x3e22834d	0.158704
5	0xbe2e2913	-0.17007856
6	0x3e3e738a	0.18598762
7	0x3e0d6ea2	0.13811734
8	0x3e8a9479	0.270664
9	0xbd078dec	-0.03309433
10	0xbeb87ee9	-0.36034325
11	0x3e025fd0	0.12731862
12	0xbe72b8d9	-0.23703326
13	0x3de8e750	0.11372244
14	0x3e9aa1b9	0.3020151
15	0xbe742321	-0.23841526
16	0x3e97b44a	0.29629737
17	0xbe67563d	-0.22591491
18	0xbebcc6d4	-0.36870444
19	0xbd9cef10	-0.07662785
20	0xbe3fa31f	-0.1871457
21	0xbd80431e	-0.062628016
22	0xbdc9988d	-0.0984355
23	0x3e74a5e2	0.23891404
24	0xbd4147c4	-0.04718758
25	0xbca46b21	-0.020070614
26	0xbc546981	-0.012964607
27	0x3e702d9b	0.23454897
28	0xbe0d5a6b	-0.13804023
29	0xbdbacafe	-0.09120749
30	0xbe79995e	-0.24374911
31	0x3a6bdc4a	0.0008997364

fc3.weight f4 [1, 32]
0	0xbc807946	-0.015682828
1	0xbde1d6be	-0.11027287
2	0xbe36c9a3	-0.17850356
3	0xbe6f9285	-0.23395737
4	0xbdb4d17a	-0.08829017
5	0xbda5eab1	-0.081014045
6	0xbd582d8a	-0.052777804
7	0xbea35233	-0.3189865
8	0xbe22bf42	-0.15893272
9	0xbe1e291c	-0.1544537
10	0x3d424466	0.04742851
11	0xbdafb87f	-0.08580112
12	0xbc70f7d1	-0.014707522
13	0xbd89887f	-0.06715488
14	0xbd9285bc	-0.07154414
15	0xbe2a4877	-0.16629206
16	0xbe19ed4d	-0.1503193
17	0xbd6d0c65	-0.05787315
18	0xbe0750c2	-0.132144
19	0xbdb0bdfc	-0.08629987
20	0xbe1a330d	-0.15058537
21	0xbe648545	-0.22316463
22	0xbe01e7b1	-0.1268604
23	0xbe5899f5	-0.2115248
24	0xbe25fe23	-0.16210227
25	0xbdbfe7a2	-0.09370352
26	0xbe7b1589	-0.24519934
27	0xbe8b75f4	-0.2723843
28	0xbe3dcbed	-0.18534823
29	0xbd3b55d5	-0.045736153
30	0xbda16cad	-0.078820564
31	0x3db4a472	0.08820428
