save/ppo/InvertedPendulum-v2/critic_model.pkl (torch_old, 2279 bytes, 3 tensors)

fc1.weight f4 [64, 4]
0.5553161 -0.10556723 -0.60240716 -0.6697058 2.9253213 0.5077348 2.2551408 -0.8039777
-6.1846185 -9.442133 6.740353 -6.561064 0.19728054 -0.21201557 -0.022451675 -0.0605743
-3.5322442 -2.551838 0.19114108 0.36393926 -4.386689 -7.918055 1.0356668 -6.116742
-0.22588359 -0.65078545 0.15933457 0.1126431 -3.0527515 -2.8748126 0.6437877 -0.28539145
0.80570173 -1.4577543 -0.7562017 -0.41707894 0.24670395 0.13233677 0.035146914 -0.047149472
2.0879786 1.0023127 -4.469606 4.7387576 -5.1712217 6.044228 -0.031990357 2.1809127
3.4492743 -0.7042988 2.2643838 1.10902 9.9385 -1.9753973 4.768637 3.214021
0.6586951 -0.0016059801 -0.630774 -0.32147872 -4.309879 -5.53821 -2.0555665 -12.004145
-0.071291335 0.4713916 0.005881365 -0.0028901924 -3.4844925 -10.2355795 -1.7298974 -2.8431306
0.11861406 -0.09711276 0.03854826 -0.015681978 2.448578 9.861209 -1.3315754 4.867049
-0.22593492 -0.25163642 0.15603393 0.04042302 0.38265023 -0.3290402 -0.18255693 -0.091103464
-0.10121714 -0.19794881 -0.4966944 -0.18036838 -3.8321488 -7.3593473 -0.31926772 -7.066761
0.33798182 0.17800143 -0.046967186 -0.06969531 0.39235857 -0.14143439 -0.35030693 -0.16581455
-0.17126112 -1.0652087 0.079918884 0.059587616 3.1072307 5.4734063 3.440605 -6.7014284
0.3513698 -0.45521894 -0.08623561 -0.15735275 0.58514065 1.4896365 -0.9227069 -0.49452493
2.9140291 -3.3700614 6.075824 0.93388236 -2.4140558 -0.04023187 -10.42611 6.6567287
0.39635482 0.29045314 -0.20320272 -0.06748436 2.8663442 1.9638026 -2.3924139 5.7748766
3.9756505 5.9404964 0.3985581 1.2616953 0.029997973 -0.16787776 -0.062245823 -0.06325606
0.5517339 -0.6079528 -3.7189727 7.4737434 -4.089533 -6.995599 0.45530635 -5.858944
-1.682071 -0.09808822 -3.223595 2.472851 -0.36110592 -0.007017865 0.3795668 0.16666304
0.81974304 0.3427895 -0.39932457 1.5665641 0.1336284 3.2587578 0.74564123 1.984709
-0.2513563 -0.39606926 -0.008563617 0.06227791 0.18797396 1.57237 0.17707108 0.05839143
4.9783416 1.3924822 6.7022367 -4.4937577 -0.4377409 -5.8946958 1.9382777 -4.869008
1.8305953 -4.0439744 1.5839317 -4.7986746 -0.13644892 0.18495883 0.12710807 -0.03835332
-4.9942236 -7.670789 -2.354905 -12.389525 2.0934157 -5.309305 0.5895961 1.3329713
-0.21634576 -1.7890973 0.24617408 0.0731791 -4.1607885 0.045158345 -5.7755375 5.007253
0.5448032 0.73576194 -0.67591435 -0.3267034 -4.2655115 -3.1082988 0.058541086 0.23681517
3.278502 -2.1062472 1.4587412 2.5371852 0.68371505 0.78893316 -0.35042033 -0.30965582
0.005655105 -1.270149 0.08866525 0.23657158 0.6281304 0.5889537 -0.5066015 -0.25054637
-0.009201806 -1.0147309 -5.6332383 7.1291246 2.2456086 -7.2355347 -2.1910312 1.5308713
3.116746 -2.2676854 0.18046668 4.6135597 -2.8906035 -13.097071 -2.641735 -2.9404438
-3.1786976 -2.7695405 -0.34818056 -0.25493044 -3.3957734 -11.514302 -1.9198753 -2.703417
00000000: 3229 0e3f a233 d8bd 5b37 1abf d771 2bbf
00000010: 7738 3b40 e8fa 013f 3a54 1040 7cd1 4dbf
00000020: 65e8 c5c0 fa12 17c1 f9b0 d740 3cf4 d1c0
00000030: e903 4a3e 9c1a 59be 93ec b7bc c21c 78bd
00000040: 4a10 62c0 5051 23c0 7dba 433e 3f56 ba3e
00000050: c25f 8cc0 b560 fdc0 bb90 843f 5abc c3c0
00000060: 074e 67be e099 26bf 9a28 233e 6db1 e63d
00000070: 4860 43c0 eefc 37c0 45cf 243f d41e 92be
00000080: 7842 4e3f b197 babf 6f96 41bf 5f8b d5be
00000090: f69f 7c3e 4a83 073e 36f6 0f3d ce1f 41bd
000000a0: 71a1 0540 c84b 803f 0307 8fc0 e7a3 9740
000000b0: a67a a5c0 516a c140 5208 03bd 1394 0b40
000000c0: e9c0 5c40 ed4c 34bf aaeb 1040 5ef4 8d3f
000000d0: 1904 1f41 d2d9 fcbf ad98 9840 85b2 4d40
000000e0: 3ea0 283f c07f d2ba 687a 21bf dc98 a4be
000000f0: 87ea 89c0 0439 b1c0 678e 03c0 fa10 40c1
00000100: 3101 92bd 3d5a f13e 77b8 c03b 6269 3dbb
00000110: ed01 5fc0 efc4 23c1 476d ddbf daf5 35c0
00000120: eeeb f23d 0ee3 c6bd c8e4 1d3d 7e77 80bc
00000130: 80b5 1c40 83c7 1d41 1071 aabf debe 9b40
00000140: 7c5b 67be 7dd6 80be 5cc7 1f3e 9c92 253d
00000150: bbea c33e f577 a8be 34f0 3abe 7494 babd
00000160: ef4a cfbd 18b3 4abe ba4e febe 7db2 38be
00000170: ed41 75c0 c67f ebc0 0f77 a3be e822 e2c0
00000180: f40b ad3e 0246 363e aa60 40bd 6abc 8ebd
00000190: 39e3 c83e 2dd4 10be 6e5b b3be 4acb 29be
000001a0: 135f 2fbe c258 88bf 83ac a33d 2512 743d
000001b0: dedc 4640 2526 af40 df32 5c40 1a72 d6c0
000001c0: bee6 b33e 7512 e9be 4c9c b0bd 1421 21be
000001d0: c7cb 153f 69ac be3f 8536 6cbf 5f32 fdbe
000001e0: 747f 3a40 16af 57c0 266d c240 ea12 6f3f
000001f0: e47f 1ac0 2cca 24bd 59d1 26c1 ec03 d540
00000200: 05ef ca3e 46b6 943e 6014 50be 3d35 8abd
00000210: 2f72 3740 e25d fb3f 4f1d 19c0 cacb b840
00000220: 0f71 7e40 8c18 be40 cf0f cc3e 3b7f a13f
00000230: 4fbe f53c 26e8 2bbe 7af5 7ebd 658c 81bd
00000240: 6f3e 0d3f cba2 1bbf a603 6ec0 e828 ef40
00000250: 74dd 82c0 f2db dfc0 ea1d e93e 787c bbc0
00000260: 1a4e d7bf 7ae2 c8bd 614f 4ec0 3143 1e40
00000270: e0e2 b8be 1ef6 e5bb 9456 c23e b7a9 2a3e
00000280: aeda 513f 1b82 af3e 4574 ccbe 2c85 c83f
00000290: e2d5 083e 7d8f 5040 58e2 3e3f f20a fe3f
000002a0: c6b1 80be 97c9 cabe 6a4e 0cbc 1f17 7f3d
000002b0: 3f7c 403e 6c43 c93f 1f52 353e da2b 6f3d
000002c0: 934e 9f40 db3c b23f b978 d640 ddcc 8fc0
000002d0: 931f e0be 59a1 bcc0 7c19 f83f eace 9bc0
000002e0: f250 ea3f 3d68 81c0 46be ca3f be8e 99c0
000002f0: 44b9 0bbe d965 3d3e 9e28 023e 5f18 1dbd
00000300: aed0 9fc0 1a77 f5c0 c3b6 16c0 7f3b 46c1
00000310: 86fa 0540 d4e5 a9c0 c5ef 163f ce9e aa3f
00000320: be89 5dbe 2401 e5bf 0f15 7c3e edde 953d
00000330: 2e25 85c0 f5f7 383d 34d1 b8c0 6b3b a040
00000340: 3978 0b3f e55a 3c3f b908 2dbf ab45 a7be
00000350: 127f 88c0 5eee 46c0 c7c8 6f3d ad7f 723e
00000360: fad2 5140 c1cc 06c0 08b8 ba3f 3e61 2240
00000370: f307 2f3f 86f7 493f 4b6a b3be 358b 9ebe
00000380: 764e b93b 3e94 a2bf 2096 b53d d23f 723e
00000390: 27cd 203f abc5 163f a3b0 01bf 9d47 80be
000003a0: 2cc3 16bc b4e2 81bf 7d43 b4c0 ca21 e440
000003b0: 0db8 0f40 8089 e7c0 db39 0cc0 97f3 c33f
000003c0: c478 4740 c221 11c0 42cc 383e 48a2 9340
000003d0: a6ff 38c0 9a8d 51c1 3012 29c0 3b30 3cc0
000003e0: c86f 4bc0 2740 31c0 b944 b2be 3e86 82be
000003f0: 5a54 59c0 953a 38c1 79be f5bf c904 2dc0

fc1.bias f4 [64]
-1.2597913 -0.037191145 4.436358 -0.32543406 3.3366382 2.4190545 -0.61859626 3.5812328
-1.7309669 -0.49640775 1.4656535 1.2586706 0.94432855 1.6594212 -1.0554878 2.4136057
-0.78360695 2.6890025 -0.3333014 1.4514443 -0.55891246 -0.69508207 -1.3108195 2.4871147
-0.5149201 -0.6587287 -0.757411 3.007511 -0.68026936 -1.603464 1.2081728 1.2832316
-0.5040663 2.894429 2.1157675 -0.56234133 5.8472657 1.8696412 -3.2098489 -0.81275535
1.8860327 1.6564561 -0.441849 -1.0043596 2.4117854 0.95974654 1.6478726 -0.5793091
2.1247427 -0.2032623 -0.70833206 2.0676293 -1.1060473 3.3872848 2.1904938 -0.91924524
-1.2269447 -1.0128759 5.53965 -0.1476227 2.9625726 2.5531826 4.108244 2.8698504
00000000: d740 a1bf be55 18bd a5f6 8d40 4b9f a6be
00000010: 7b8b 5540 cad1 1a40 535c 1ebf eb32 6540
00000020: 5390 ddbf 2829 febe 899a bb3f 1e1c a13f
00000030: 84bf 713f ea67 d43f 391a 87bf 8478 1a40
00000040: 779a 48bf 9e18 2c40 7ba6 aabe edc8 b93f
00000050: e314 0fbf e6f0 31bf efc8 a7bf e32c 1f40
00000060: ced1 03bf 72a2 28bf b0e5 41bf 0f7b 4040
00000070: 2226 2ebf 4f3e cdbf 68a5 9a3f ef40 a43f
00000080: 7d0a 01bf 533e 3940 bc68 0740 9af5 0fbf
00000090: cd1c bb40 6750 ef3f 2a6e 4dc0 bc10 50bf
000000a0: 8569 f13f c106 d43f 083a e2be db8e 80bf
000000b0: b15a 1a40 f3b1 753f 7ded d23f 9a4d 14bf
000000c0: c9fb 0740 fe23 50be 4055 35bf 0a54 0440
000000d0: f592 8dbf 46c9 5840 0d31 0c40 a853 6bbf
000000e0: 860c 9dbf eba5 81bf d044 b140 682a 17be
000000f0: ca9a 3d40 5867 2340 bc76 8340 a1ab 3740

fc2.weight f4 [1, 64]
-0.15945134 1.2476344 0.30170175 -0.054703146 1.0528785 0.3828593 0.11406952 0.5480679
-0.40756994 0.10475495 -1.0283226 -2.2442188 0.34659418 -0.66279274 0.12304082 0.35526818
0.10464369 -1.0173355 -0.094134696 -0.91432154 0.06181904 -0.066571675 -0.033799995 0.36096746
0.094992585 -0.023315579 -0.07196956 -0.68680644 0.06567244 -0.008224284 -1.1575398 0.10317292
0.108998016 -0.6754132 0.28485042 0.042982783 0.9099717 0.44361514 0.7126786 0.0051650032
-0.9480175 -1.3478925 -0.068293005 0.07479178 -1.0354443 1.3518246 -2.8022614 0.12018817
0.14662807 0.92824656 0.09413992 0.07939414 -0.048088964 0.78285897 0.31323513 -0.04186782
0.0753329 -0.03054417 0.40811706 -2.3268137 0.28977302 -1.0424829 0.25318682 -1.1637938
00000000: 3647 23be 7cb2 9f3f a778 9a3e 6810 60bd
00000010: b9c4 863f 2206 c43e 489d e93d 2e4e 0c3f
00000020: 02ad d0be c389 d63d 13a0 83bf 48a1 0fc0
00000030: cb74 b13e c9ac 29bf d3fc fb3d b6e5 b53e
00000040: 6e4f d63d 0d38 82bf b1c9 c0bd fa10 6abf
00000050: f635 7d3d bb56 88bd dd71 0abd bad0 b83e
00000060: 798b c23d 5000 bfbc c764 93bd 8cd2 2fbf
00000070: 467f 863d 26bf 06bc 442a 94bf 534c d33d
00000080: 5a3a df3d e1e7 2cbf ead7 913e b70e 303d
00000090: e8f3 683f 8621 e33e 1b72 363f 303f a93b
000000a0: 46b1 72bf be87 acbf 34dd 8bbd 6f2c 993d
000000b0: 7089 84bf 9708 ad3f 4058 33c0 3725 f63d
000000c0: ab25 163e 91a1 6d3f 6ecc c03d 6599 a23d
000000d0: eff8 44bd 7269 483f 5b60 a03e 977d 2bbd
000000e0: 2348 9a3d c437 fabc b8f4 d03e 84ea 14c0
000000f0: 215d 943e 1470 85bf b4a1 813e 32f7 94bf
